Source/GameAI_Project/Scripts/training_results/20251202_001039/rl_policy_network.onnx (onnx, 288945 bytes, 15 tensors)

model._logits._model.0.weight f4 [16, 64]
000000 12 7a 05 3c 03 75 15 3d ce 6b bc bc 5c 84 d6 3c
       0.00814678 0.036488544 -0.023000624 0.02618616
000010 c1 70 57 bb 68 1b 46 bd 91 07 ec 3c 01 ca fc bc
       -0.0032873603 -0.04836598 0.028812202 -0.030858042
000020 df a4 2d bd 21 23 2d bd 73 d3 8c 3c ab d8 bb bb
       -0.04239356 -0.04226983 0.01719067 -0.005732616
000030 2e d9 74 3b fb c8 ba bb 4e e7 4b 3c eb 4f 84 bc
       0.0037360894 -0.0057002283 0.012445284 -0.01615139
000040 dc c9 af 3c 44 b4 9b 3b b6 1c ee 3c 26 b3 24 bd
       0.021458559 0.004751714 0.029066425 -0.04020991
000050 ec e4 57 3d 3b 63 45 b9 05 b0 06 3d f1 cd 88 3a
       0.05270855 -0.0001882435 0.03288271 0.0010437352
000060 cb 43 a8 ba 15 14 a6 bc 22 03 2f 3d 97 c7 b7 3c
       -0.0012837587 -0.020273248 0.042727597 0.022434039
000070 a4 63 1c 3b e5 91 26 bd 4c 4a b7 bc 03 1d ab 3b
       0.0023863101 -0.04066648 -0.022374295 0.0052219643
000080 c7 15 4a 3a 8d 84 8d bc 2a 83 b0 bb 94 60 6d bd
       0.00077089336 -0.01727512 -0.0053867297 -0.057953432
000090 ba 46 9e 3c 77 32 ef bc c7 ba 7e 3c a3 88 50 3d
       0.019320834 -0.029198868 0.015547461 0.050911557
0000a0 42 b2 df 3b 16 8e 2c bd 54 32 9d 3c e8 e4 8a 3c
       0.00682667 -0.04212769 0.019189037 0.016954854
0000b0 be 71 65 bc 8c 83 22 3c ef 6d 09 bd 74 b8 82 bd
       -0.014004169 0.0099190585 -0.033552106 -0.06382838
0000c0 04 fa 33 3c 5a 37 8d 3c 97 18 9f 3b 1c 6e e2 bb
       0.010984901 0.017238308 0.0048552263 -0.0069100987
0000d0 83 2b 0f 3c 65 9e 56 bb af 25 43 bc 1e 4d 8b 3c
       0.008738401 -0.003274822 -0.01191084 0.017004546
0000e0 81 5c e7 bb 85 b4 9c bc 13 61 1a 3c 6e 7b 11 3c
       -0.007060588 -0.019129047 0.009422558 0.008879526
0000f0 76 a0 17 bb 51 ef dd 3c fd 1d c4 3a c4 f9 1d bd
       -0.0023136414 0.027091654 0.001496255 -0.038568273
000100 16 42 bf 3c b6 62 fa bc 4e aa 95 bc 00 56 d1 3c
       0.023346942 -0.030564647 -0.018269684 0.025553703
000110 24 d2 75 3b 00 eb 9c bc 3d fe e0 3b 6e b1 91 3b
       0.0037509287 -0.019155025 0.006866245 0.0044462
000120 8c b5 3c 3c be f8 95 3c 85 16 09 3c 11 6f 93 bc
       0.0115178935 0.018307086 0.0083671855 -0.017997297
000130 f2 2c c8 3c 4b 84 d6 bc 5b 6a b1 39 af 23 8a 3c
       0.024435494 -0.02618613 0.00033839312 0.016862718
000140 c1 59 9f 3d e6 bd 19 bb 29 9a 68 3d 05 be 91 39
       0.07780791 -0.0023459136 0.056787644 0.0002779813
000150 99 65 fa 3c d9 20 f4 bb ff 7f e0 3c 91 e6 9e ba
       0.030566024 -0.007450205 0.027404783 -0.0012123158
000160 a0 5e 7a 39 27 e6 ac bc a8 29 0d bd 98 c5 a2 3c
       0.00023877108 -0.021105839 -0.034463555 0.01986961
000170 72 e0 6a bc cd b3 86 3d 70 a4 6f 3c d6 93 56 bb
       -0.0143357385 0.06577263 0.014626607 -0.0032741926
000180 86 dc 00 bc b3 51 25 3c 1d 44 ab bc 3a e4 5a 3d
       -0.007865077 0.010090279 -0.020906502 0.05344031
000190 c2 2e 55 bd a3 83 01 bc ab 83 88 bc f8 96 1f 3c
       -0.052046545 -0.00790492 -0.016664347 0.009740584
0001a0 b0 d5 79 bc 16 b1 0c 3d 06 60 17 3d 75 04 01 3c
       -0.015248701 0.03434857 0.03695681 0.007874598
0001b0 85 15 6e bc 95 57 ea 3b 40 46 8c 3c ff 60 1d bd
       -0.014531498 0.007151554 0.017123342 -0.03842258
0001c0 2c d5 a9 bc 51 db 8f 3c 8b be 98 3a 56 4c fb bc
       -0.020731531 0.017560633 0.0011653466 -0.030676048
0001d0 e9 54 b6 3b b4 12 74 3c 1a ee 59 3a c0 91 5e bd
       0.0055643213 0.014897037 0.0008313373 -0.054338217
0001e0 d7 e7 01 bb 85 7f c7 3c 52 0c 0f bc 9b 16 30 bd
       -0.0019822025 0.024352798 -0.008730965 -0.04299031
0001f0 c3 50 2f bb 39 a5 9f bc 70 b4 09 3c a7 4c c3 bc
       -0.0026751019 -0.019487964 0.008404836 -0.023840262
000200 96 c0 38 bc 39 f1 03 3d ec c5 ee bc b5 99 a4 bc
       -0.011276385 0.03221247 -0.02914711 -0.020092824
000210 d0 f2 2a 3c 51 1b 03 3d 71 49 72 3c c5 8f 08 bd
       0.010433868 0.032008473 0.014788018 -0.033340234
000220 48 6a a9 bc 6b ca 9b 3c dc a8 c9 3c 4e 53 bf bc
       -0.020680562 0.019017419 0.024616651 -0.023355152
000230 14 2c 5d bd 61 4f 2c 3a bb bc 38 3b 65 57 d7 bb
       -0.053997114 0.00065731077 0.0028188664 -0.0065716975
000240 1e 28 c2 bc 9e 95 16 bb 83 5d 66 bc ed de 8f bc
       -0.02370077 -0.0022977362 -0.014060381 -0.017562354
000250 82 72 ab bc 23 8a 7f bc 13 ff 58 bc 2c dc d3 bc
       -0.020928625 -0.015596899 -0.013244408 -0.025861822
000260 3a d3 01 3c b0 32 c0 3a c0 b0 5e 3b 30 f8 4b bd
       0.0079238955 0.0014663544 0.0033979863 -0.049797237
000270 32 ff 94 bb fc 23 95 3b 50 99 82 bc f2 b3 dd ba
       -0.004547023 0.004551409 -0.015942246 -0.001691459
000280 a5 37 08 ba af 94 87 bc 3c 07 5c bc d9 12 28 bb
       -0.000519628 -0.01655039 -0.013429459 -0.0025646
000290 32 ae 8d 3d ec 92 76 bc bb 7b 2d 3c 99 00 b6 bc
       0.06917991 -0.015049677 0.010588582 -0.022217082
0002a0 d1 7f 6c 39 24 85 2a bc e9 13 ed bb 17 35 42 bd
       0.00022554329 -0.01040772 -0.0072350395 -0.04741391
0002b0 97 c4 0f bc 5a 9a 1f 3c d4 d3 dd bc b5 96 4a 3d
       -0.008774898 0.00974139 -0.027078547 0.04946013
0002c0 6d 5f a1 bc ba a2 a6 3a dd b3 be 3a 07 f3 87 3d
       -0.019698823 0.0012713291 0.0014549453 0.06638151
0002d0 8a 79 18 bb 9b 14 61 3c 22 a6 e3 3a d7 c9 60 3d
       -0.0023265802 0.013737823 0.0017368237 0.05487999
0002e0 cd 0d 2b bb 5a cb 7a 3c b2 d0 57 bb a5 4e 13 bd
       -0.0026100755 0.015307272 -0.0032930789 -0.035963673
0002f0 fa db f6 bc c6 ff 60 bc 73 42 07 3c 2a 85 d2 3c
       -0.03013419 -0.013732856 0.008255589 0.025698263
000300 f6 9c 52 bd 93 96 6b bc 05 85 60 bc ff 14 92 3c
       -0.05141922 -0.014379161 -0.013703589 0.017832277
000310 7b ab 16 3c 39 5b a4 bc d9 6b 5d 3c 0c 4f b7 3a
       0.009196158 -0.02006303 0.013514482 0.001398535
000320 4a a4 a1 bc 53 b1 45 3d f1 11 85 bc 89 03 3b bd
       -0.01973166 0.048264813 -0.016243907 -0.04565767
000330 c7 b4 f4 ba 4c e5 75 bc ed 33 f8 bc d8 c9 20 bd
       -0.0018669599 -0.015008282 -0.030298198 -0.039254993
000340 e6 0e 95 3d c4 c9 e8 3a d6 aa eb 3c ac 0e 7a bc
       0.07278232 0.0017760326 0.028767984 -0.015262287
000350 bb 45 60 3d 8d d0 31 3c 1a 71 6c 3d 0b 94 ef 3c
       0.054754 0.010852945 0.05772505 0.029245397
000360 fa 00 9b 3b c1 aa e2 bc 39 83 4a bc 21 1d 41 bc
       0.004730341 -0.027669312 -0.0123603875 -0.01178673
000370 82 f9 78 bc b8 c5 a0 3b a3 f5 27 ba b7 18 0e bc
       -0.015196206 0.0049063824 -0.0006407147 -0.008672885
000380 95 c8 f7 bb a4 fd f1 ba 60 55 f7 bc d1 d0 17 bd
       -0.007561753 -0.0018462432 -0.030192077 -0.037064377
000390 d7 10 f2 bc fc a6 4a bc eb cf 89 3b 2a 69 b0 bc
       -0.029549045 -0.012368914 0.004205694 -0.021534521
0003a0 16 79 f9 ba 9d a1 13 3c f6 a1 1d 3c 89 84 06 bb
       -0.0019033279 0.0090107 0.009621134 -0.0020525774
0003b0 f6 d3 52 3b 28 b6 a7 3b 82 69 4d bc 5c 89 0b 3a
       0.0032169796 0.0051181503 -0.012537362 0.00053228973
0003c0 56 ed 22 39 22 b8 7b bc 69 93 2e bb ca d2 cc 3c
       0.00015537938 -0.015363725 -0.0026638156 0.025002856
0003d0 f4 4f 0b bb 1f 04 77 3b d7 50 8e 3c 2c 1f 2a 3c
       -0.0021257373 0.0037691665 0.017372532 0.0103834085
0003e0 55 b5 6b 3a d4 2c 58 bb 74 9c 17 3c 2f f8 45 3d
       0.0008991559 -0.0032985704 0.00925361 0.04833239
0003f0 de c0 0f bd 48 86 d7 bc 1d a5 08 3c 8f b2 7c bc
       -0.03509604 -0.026309147 0.008340147 -0.015423431

model._logits._model.0.bias f4 [16]
000000 2b 3b 04 bd 05 e2 1b bc a6 00 60 3b 8b 23 85 bc
       -0.03228299 -0.0095143365 0.0034180074 -0.0162523
000010 c9 15 0e 3d 8e bf 1e bd 3a 01 1a bc 60 f8 16 3d
       0.034688745 -0.0387569 -0.0093997065 0.036857963
000020 6c 88 32 3d a3 ec c7 3b fc 54 d7 bb 91 72 e5 bb
       0.043587133 0.0061012073 -0.00657141 -0.007002183
000030 79 1e 60 3b d6 e4 aa 3c fc 51 d5 3a 06 6e 8f bc
       0.003419785 0.02086107 0.0016275044 -0.017508518

model._hidden_layers.0._model.0.weight f4 [128, 78]
000000 f4 0c 9d bc 27 63 0b 3e 49 df 94 3d 85 48 13 3e
       -0.019171216 0.13612042 0.07269151 0.14383133
000010 01 56 8f 3d 35 5f f9 3d af b9 35 be c7 84 e6 bc
       0.06998826 0.121763624 -0.17746614 -0.028139485
000020 88 ff 06 3e 4e f1 9f be 15 62 73 bd 7f bf 2b bd
       0.13183415 -0.31238788 -0.05941971 -0.04193067
000030 00 88 48 be c6 aa 2d bc 25 21 4e 3d 50 b4 9c 3e
       -0.1958313 -0.010599798 0.050324578 0.30606318
000040 21 c5 25 be e5 13 fc 3d c3 c7 2b be 0e 23 17 ba
       -0.1618848 0.12308482 -0.16775422 -0.00057654164
000050 d9 be f5 bb 67 5b 67 bd 8d 66 89 3c 45 f5 19 3c
       -0.0074995575 -0.056483652 0.016772533 0.009396856
000060 b9 a4 f2 3d d9 7a 06 3e d5 dd 77 bc 23 8a be 3d
       0.118478246 0.131328 -0.0151285725 0.09303691
000070 73 38 2a 3d 6b 12 be bc 47 ac 99 3d 15 dc ff bd
       0.04155774 -0.023202142 0.075035624 -0.12493149
000080 c1 74 e1 bc 50 7b ae bc 20 7a 3a 3e 1e 61 39 bd
       -0.027521493 -0.021299034 0.1821065 -0.045258634
000090 e1 33 d2 3d 63 6c 01 3d 74 fa cd 3d 72 39 3d be
       0.10263801 0.031597506 0.10057536 -0.18478945
0000a0 72 aa e9 bd 34 13 f0 bd 6a 9f 8f 3c d7 85 01 bd
       -0.11409463 -0.11722413 0.01753207 -0.03162178
0000b0 a5 05 97 bd 55 67 09 3e 09 a3 24 3c 5c b0 e6 ba
       -0.073741235 0.13418324 0.010048636 -0.0017600167
0000c0 bb 22 3b be 13 b2 a7 bd 59 01 5f be 91 d6 9f 3c
       -0.18274967 -0.08188262 -0.21777858 0.019511493
0000d0 17 b0 10 be 79 df 19 3e df 03 c1 bd c7 81 1b 3d
       -0.14129673 0.15026654 -0.094245665 0.037965562
0000e0 b7 71 0c 3d 33 6f 6d 3e 17 65 67 3d 80 3a 1b 3c
       0.034288134 0.2318695 0.05649289 0.009474397
0000f0 9c b1 62 3c cb c8 69 be d6 f7 88 bd 6f 51 27 3e
       0.013836291 -0.22830503 -0.06687896 0.16339658
000100 0b 01 45 3d b9 c2 5a 3d d4 57 d7 3d f1 f5 da bd
       0.048096698 0.05340836 0.10514799 -0.10691441
000110 31 58 bb bd 45 6e f1 3d 41 81 84 3d 0b 3a de 3d
       -0.091476806 0.1178861 0.06469966 0.108509146
000120 f7 c9 03 be 23 02 27 be a5 f3 30 bd c1 a3 11 be
       -0.12870012 -0.16309409 -0.043201108 -0.14222623
000130 51 de 4a bd 59 c7 04 bd ce c5 40 3e 79 de 6e 3c
       -0.049528424 -0.032416675 0.18825457 0.014579409
000140 00 fd 75 3d 94 af 23 bd 92 c5 a6 3d c5 5a 6e 3e
       0.060055733 -0.039962366 0.08143152 0.23276813
000150 f2 5d bf 3d c3 00 ab bd 62 b8 92 3a 9b 0c 3c 3e
       0.093440905 -0.08349755 0.0011193866 0.18364184
000160 d4 4d 09 be 70 e0 61 3e 0a 65 82 3e eb 96 e5 bd
       -0.13408595 0.22058272 0.25467712 -0.11210426
000170 8f 47 d8 bd 13 df c3 bd 67 0e 8d 3b 70 77 db bd
       -0.10560524 -0.095640324 0.0043046954 -0.1071614
000180 f5 46 6a 3d f3 b0 b8 ba 5f 94 80 3d ba e6 e7 bd
       0.057196576 -0.0014090821 0.062782995 -0.113233045
000190 f9 84 c4 bd 33 2b 8b bd 26 03 46 3d cd aa ae be
       -0.09595675 -0.06795349 0.048342846 -0.34114686
0001a0 33 95 a7 bd 6e d1 16 bd d1 29 f6 bb dd 89 24 3d
       -0.08182754 -0.03682082 -0.007512309 0.04017054
0001b0 5c 1a b3 3d 73 99 b4 3d ec 03 24 bd f6 c0 5f be
       0.08745262 0.088183306 -0.040042803 -0.21850953
0001c0 59 04 10 3e 43 6a b6 bd f9 bc 75 3d c7 0f 19 bd
       0.14064158 -0.089069866 0.05999467 -0.037368562
0001d0 de 32 a6 3d cf e6 ee bd 96 94 af bc d4 e8 89 3c
       0.08115171 -0.11665117 -0.021433156 0.016834654
0001e0 5e 71 f9 bd d2 b1 d4 bd 84 bf a5 bd 36 fe b4 3d
       -0.12179826 -0.10385479 -0.08093169 0.088375494
0001f0 db 9b 05 be f4 77 e1 bd 9c b2 b1 bd 9b e0 3a 3e
       -0.13047735 -0.11009207 -0.08676645 0.18249743
000200 50 70 9a bd 7f 1c ea 3d ce 82 3f bd 3c 74 8d 3b
       -0.07540953 0.114312164 -0.046755604 0.0043168347
000210 d7 75 8c bd 27 b1 c7 bc 17 00 94 3d dd fc 33 3b
       -0.06858414 -0.024376465 0.0722658 0.002746395
000220 48 88 9e 3d 20 69 0a 3e ac 9f cb bd 70 d7 42 3e
       0.07740837 0.13516665 -0.09942564 0.19027495
000230 fa 66 32 3c b4 d6 22 3e b7 e6 94 3d 98 a8 23 3e
       0.010888809 0.15902215 0.07270568 0.15982282
000240 b2 ca 89 ba b3 a4 37 3c f9 e7 0c be 15 17 80 3c
       -0.0010512678 0.011208701 -0.13760366 0.015636006
000250 fd 22 ad 3d 6c 36 0f ba 75 4c 95 3e c2 49 63 3d
       0.08453939 -0.00054631266 0.29159895 0.055490263
000260 30 e5 86 bc 02 31 46 3d e3 2d 8f 3d 40 05 41 bd
       -0.016466707 0.04838658 0.06991174 -0.047124147
000270 f0 90 b1 bd 95 1f 2e bc ca d2 4f 3d ef c9 49 be
       -0.08670223 -0.010627647 0.050738133 -0.19705938
000280 eb 40 3a 3c f5 c4 04 3d ef 17 4c bd 71 ac e4 3d
       0.011368017 0.032414395 -0.049827512 0.11165703
000290 6b 75 5d 3c 8c 13 23 be 9f 85 bb 3c 53 f8 d6 3d
       0.013516764 -0.15925425 0.022890864 0.10496583
0002a0 07 5b ce 3b fa 89 50 3e d7 ba 0d 3c 83 a1 6c 3d
       0.0062974724 0.20365134 0.008650503 0.057771217
0002b0 43 e1 ff bd db 51 f7 bd b5 44 c2 3c 12 49 01 be
       -0.12494137 -0.120761596 0.023714403 -0.1262553
0002c0 85 fe d0 bd d6 6d 17 be 11 0f 45 3d db 87 1b 3d
       -0.10204796 -0.14787993 0.04811007 0.03797136
0002d0 e4 d0 47 3e 27 bc c6 3d d0 8a 30 3e 27 f4 0a bd
       0.19513279 0.09703856 0.17240453 -0.033924248
0002e0 89 92 e9 3d 91 df e5 3d 47 51 5b 3d d0 29 87 bd
       0.114049025 0.112242825 0.05354431 -0.06599772
0002f0 7b 26 66 be b5 c8 93 be b1 80 e7 3d 94 bd 79 bc
       -0.22475617 -0.28864065 0.11303843 -0.015242953
000300 ec d0 fe 3d ac 16 74 3c a4 70 40 3d 52 6c 02 be
       0.124421924 0.0148979835 0.046982422 -0.12736633
000310 7b 70 f3 bc 12 2e 9f bd fc 21 03 bc c2 78 50 bd
       -0.02971672 -0.07772459 -0.008003708 -0.050896414
000320 f9 e9 00 3e e8 e2 eb 3c 26 ce 06 3d 29 21 be 3d
       0.12589253 0.02879472 0.032911442 0.092836685
000330 a8 ef 6a 3c 76 ed 7c be d2 c2 a3 3d 9c 73 1c be
       0.014339365 -0.24699959 0.079961434 -0.15278476
000340 a9 56 ac bc 7c 5e 81 be cb e7 47 3d fd b5 55 bd
       -0.021037417 -0.25267398 0.04880504 -0.05217551
000350 9d 5a 5c 3e 8e 3a 19 3e 27 96 cc bd 5d 28 f2 bd
       0.21518941 0.14963743 -0.09989577 -0.11824105
000360 cd a7 4c 3d e4 d1 7b be 55 74 8e 3d c2 64 f3 3c
       0.049964715 -0.24591786 0.06955782 0.029711131
000370 19 0f 32 3d c2 eb 1f bd 93 40 ac 3d 00 99 0c 3d
       0.04347143 -0.039043196 0.08410754 0.0343256
000380 4b 32 6d be 8f 73 1d 3d a5 d9 05 bd 88 97 2c 3e
       -0.23163716 0.038440283 -0.032678265 0.1685468
000390 33 4c 61 b9 cd 0d d1 3b 5f 9c 5e 3e 98 79 80 bc
       -0.00021486059 0.006379819 0.21739338 -0.01568298
0003a0 13 d3 10 be b5 6e 5d bd b4 f3 29 be f5 b3 9a 3d
       -0.14143018 -0.054060657 -0.16596872 0.07553855
0003b0 4e 76 af bd 8b 94 c1 3d cd 25 85 bd e7 fd 8f 3c
       -0.08567487 0.094521604 -0.065013506 0.017577125
0003c0 64 b8 0d be 9e e5 38 3e 57 e9 de 3d f1 d5 aa bd
       -0.1383987 0.18056342 0.1088435 -0.08341587
0003d0 fd 64 cd 3e bf d9 9e 3c ef 44 10 3e e9 34 9b bd
       0.4011611 0.019390939 0.14088796 -0.07578451
0003e0 28 b1 3b 3c 26 70 15 3e d4 84 47 be dc be 7b bd
       0.011455812 0.14593562 -0.19484264 -0.061461315
0003f0 ba 69 d4 3d ae cc 64 bd 89 32 1a 3d 8f b7 02 3d
       0.10371728 -0.05585926 0.03764585 0.031913336

model._hidden_layers.0._model.0.bias f4 [128]
000000 76 4e d1 bb 00 00 00 00 2b 69 4c 3b 8e a0 4a bb
       -0.006387527 0.0 0.0031190615 -0.0030918452
000010 47 97 2f bc 00 00 00 00 ac 6f f0 bc 00 00 00 00
       -0.01071722 0.0 -0.029350124 0.0
000020 00 00 00 00 df 4c a5 bb c9 2b 29 bc 48 ec 52 bb
       0.0 -0.005044564 -0.010325381 -0.0032184292
000030 b8 53 03 3c 57 d9 a0 bc 00 00 00 00 06 5a 94 bc
       0.008015566 -0.019634886 0.0 -0.018109333
000040 78 d5 11 bc 74 a2 4f 38 5b 5d 01 b9 00 00 00 00
       -0.008900993 4.9503942e-05 -0.00012337176 0.0
000050 00 00 00 00 46 0d 0b bc 27 41 7f bc 00 00 00 00
       0.0 -0.008487051 -0.015579498 0.0
000060 e0 bc 0e ba 95 b3 bb 3b 76 83 f3 3a 33 0d dd bc
       -0.00054450147 0.005728195 0.0018578607 -0.026983833
000070 5e b2 f5 3b 0e 29 b1 bc b3 c1 18 bc fd 5b af 3b
       0.0074980697 -0.021626022 -0.009323525 0.005351542
000080 d6 38 36 bb 00 00 00 00 00 00 00 00 84 07 f5 3b
       -0.0027804873 0.0 0.0 0.0074777026
000090 04 cf 86 bc 00 00 00 00 87 d8 a3 bc 00 00 00 00
       -0.016456135 0.0 -0.02000071 0.0
0000a0 00 00 00 00 d3 2e 03 bc db 39 06 bc 00 00 00 00
       0.0 -0.008006769 -0.008192505 0.0
0000b0 4a db 9c bc 00 00 00 00 00 00 00 00 d9 31 20 bc
       -0.019147534 0.0 0.0 -0.00977751
0000c0 e4 9e da bc 06 67 f0 bc 00 00 00 00 5e 94 e5 bc
       -0.026687093 -0.029346 0.0 -0.028024849
0000d0 81 bd 53 bb e1 dc 9d bc fc dc 04 3a ba f1 59 bc
       -0.0032308998 -0.019270362 0.00050683296 -0.013302261
0000e0 00 00 00 00 c7 16 c3 3b d8 0a d3 bc 00 00 00 00
       0.0 0.005953643 -0.025762007 0.0
0000f0 00 00 00 00 00 00 00 00 00 00 00 00 22 2d fa bb
       0.0 0.0 0.0 -0.007634775
000100 00 00 00 00 9b 95 7a bc 65 38 d3 3b ae ca b9 bb
       0.0 -0.015294458 0.0064459317 -0.0056699133
000110 00 00 00 00 00 00 00 00 5d 21 ea bb 00 00 00 00
       0.0 0.0 -0.0071450905 0.0
000120 28 7d 68 bc a7 de 0a bc bc 79 42 b8 b8 df cc bc
       -0.014189996 -0.008475936 -4.636658e-05 -0.025009021
000130 00 67 97 bb 00 00 00 00 00 00 00 00 3f 09 a9 bc
       -0.004620433 0.0 0.0 -0.020634292
000140 00 00 00 00 25 72 1f bd 51 0c a1 bc 00 00 00 00
       0.0 -0.038927216 -0.019659193 0.0
000150 00 00 00 00 e6 e2 64 bb 00 00 00 00 66 bd 2c bc
       0.0 -0.003492528 0.0 -0.010543203
000160 8c 1d 40 bc a6 a9 57 bc c9 f1 b0 bb 00 00 00 00
       -0.0117257945 -0.013163006 -0.005399917 0.0
000170 00 00 00 00 b4 19 8e bc 5d ba 4d bc 2b 50 86 bc
       0.0 -0.01734624 -0.0125566395 -0.016395649
000180 00 00 00 00 63 9d 9c 3b 79 09 26 bc 05 f1 8d bc
       0.0 0.004779504 -0.010134094 -0.017326841
000190 00 00 00 00 4e 59 1e 3c 75 a2 02 bc 2f c5 0f bc
       0.0 0.009664847 -0.007973303 -0.00877504
0001a0 00 00 00 00 00 00 00 00 eb c6 cc ba 00 00 00 00
       0.0 0.0 -0.0015623247 0.0
0001b0 ea 6f bb bc dd a1 94 bc 09 ea de 3b 00 00 00 00
       -0.022880513 -0.018143589 0.0068028015 0.0
0001c0 56 ba a5 bc db c5 78 39 ac 52 6b 3b e2 5d 0c 3c
       -0.020230453 0.0002372483 0.003590743 0.008567305
0001d0 a6 3a 07 bb de 47 dd bc a5 03 bd ba 00 00 00 00
       -0.0020634322 -0.027011808 -0.0014420642 0.0
0001e0 00 00 00 00 38 73 26 bd 00 00 00 00 eb 2b 22 bc
       0.0 -0.040637225 0.0 -0.009898166
0001f0 00 00 00 00 7f 2a 02 bd d6 93 df bc 0e bb 30 bc
       0.0 -0.03177881 -0.027292173 -0.010786785

model._hidden_layers.1._model.0.weight f4 [128, 128]
000000 28 5a bb 3d 14 f2 47 3d 87 68 35 3d 32 71 11 3e
       0.09148055 0.048814848 0.04428914 0.14203337
000010 42 14 12 3e ed e6 24 3d d0 37 ae bc 32 67 8d 3d
       0.1426554 0.04025929 -0.021266848 0.069044486
000020 93 61 0b 3e 3b ca 76 3d 5a 9a cf bd 54 f9 e2 bd
       0.1361144 0.060251456 -0.10136862 -0.11082712
000030 ad dc 89 3b 39 5f b5 3d f8 f9 24 bc 08 0f e4 3d
       0.004207215 0.08856053 -0.010069363 0.111356795
000040 e5 3f f1 3d 70 77 5d bc bb f0 df bd de 17 e6 3c
       0.11779765 -0.013517246 -0.109345876 0.028087553
000050 26 18 8f 3d d4 b9 2c be b7 d1 36 be a6 42 63 3d
       0.06987028 -0.16867763 -0.17853437 0.055483483
000060 10 53 f9 bd 62 ab b3 bc f8 56 2c 3b c2 c6 2c 3d
       -0.12174046 -0.021932308 0.0026296955 0.042181738
000070 45 39 82 bc 2c a4 f5 bd 89 47 25 be 60 3a cf 3d
       -0.015896449 -0.11994204 -0.1614057 0.10118556
000080 c8 15 1d be ff 98 7a 3d c8 5e 6e bc ba 81 19 3d
       -0.1534034 0.061181065 -0.014548965 0.037477233
000090 8d 77 0a be 84 99 b3 bd 7e 87 0b be d0 9b 1b 3c
       -0.13522168 -0.08769515 -0.13625905 0.009497598
0000a0 08 72 87 bd 01 73 e7 3d 3b 5b 34 bd ff 46 2a bd
       -0.066135466 0.11301232 -0.044032317 -0.041571613
0000b0 a8 66 b9 bd 58 07 89 3e 47 8e 5f bd 81 88 d1 3d
       -0.09052783 0.26763415 -0.054579046 0.10231114
0000c0 15 5c b8 3c 2b 5e 02 bb 37 b1 00 bd e9 c6 d4 bc
       0.022504846 -0.0019892554 -0.031419005 -0.025973754
0000d0 66 16 a5 3d c8 f4 0b 3e b5 89 7d bc ad e5 5f bd
       0.08060913 0.13667595 -0.015474726 -0.054662395
0000e0 7e 87 e3 bd 18 ae fe bd d1 e6 92 3d 04 87 2d 3d
       -0.111098275 -0.124355495 0.07172931 0.04236509
0000f0 5b 3e 2b bd 28 38 c6 bd 24 71 24 3d 53 40 d5 bd
       -0.041807514 -0.0967868 0.04014696 -0.104126595
000100 07 4a a2 bd e9 54 f1 bd e1 b1 07 be e2 8c 33 3c
       -0.07924276 -0.117837735 -0.13251449 0.010958882
000110 f1 69 19 3e 46 b0 0e be e9 65 8e bd c1 29 94 bc
       0.1498182 -0.1393443 -0.069530316 -0.018086316
000120 08 0d ed 3d b5 5b 2a bc 4b 08 15 be c8 5a d9 bc
       0.11574751 -0.010397841 -0.14553945 -0.026532546
000130 4a 9d 82 bc 6f 14 2d 3d 31 de 04 3d 38 83 1f bd
       -0.015944142 0.042255815 0.03243846 -0.0389435
000140 be 1d ea 3c 1f 0c 19 bd 6c 50 7a be c0 2d 0d 3c
       0.028578635 -0.037365075 -0.24444741 0.008616865
000150 de 49 3d bd 75 d1 54 3c a4 1d d5 bd 03 9c 2f 3d
       -0.046213023 0.012989392 -0.10406044 0.042873394
000160 ec f9 2e bd 80 bf 9e bd b2 52 98 bd 51 74 70 3c
       -0.042718813 -0.077513695 -0.07437648 0.0146761695
000170 34 6a 9e bc a9 fe cd 3d 59 28 3e 3d 71 5a 8f 3c
       -0.019337751 0.10058338 0.046425197 0.01749918
000180 73 4b 2f bd 08 25 ed ba 30 59 35 be da f0 78 3d
       -0.042796563 -0.0018092701 -0.17709804 0.06077657
000190 5b 80 9c 3b 77 99 2a 3d 02 3d 26 be 87 13 5f 3d
       0.0047760434 0.04165026 -0.1623421 0.054461982
0001a0 b6 34 8b 3d 62 61 d7 3c 3d 31 56 3c d0 04 fc bc
       0.06797163 0.026291553 0.013073263 -0.030764014
0001b0 79 39 f5 bc 05 93 8f 3b 65 e2 15 3e e4 04 93 3d
       -0.029934632 0.0043815398 0.14637144 0.07178667
0001c0 39 39 81 bb de c3 aa 3d 0c 9c 5f bd f8 ce 0f bd
       -0.003943589 0.0833814 -0.054592177 -0.03510949
0001d0 03 9c 64 bd 60 45 3d 3c 85 55 34 bd 1e a4 05 3e
       -0.055812847 0.011552185 -0.04402687 0.13050887
0001e0 00 eb 2f 3e 42 93 63 3d 2d f2 a6 3c ef 2c 03 3e
       0.17179489 0.055560358 0.02037915 0.1281011
0001f0 fc ac 2b 3d 6a 10 39 be 57 b2 e3 bd 93 00 03 3e
       0.041913018 -0.18072668 -0.11118 0.12793188
000200 ad df 4e be 44 aa 7d 3d ca 6e 4c bd 8c d1 41 3c
       -0.20202513 0.061929956 -0.049910344 0.011829745
000210 90 56 02 3d 1c 32 e2 bd 12 e2 b9 3d 17 83 8c bd
       0.031820834 -0.11044714 0.090763226 -0.06860941
000220 23 07 a8 3d 1d 0a 12 3a 4a d5 51 3d 23 6d 8b 3d
       0.08204486 0.0005570965 0.0512288 0.068079256
000230 ef b9 dc bd e1 69 5e bd 97 a6 9d bd 75 1a ca bc
       -0.107776515 -0.054300193 -0.0769779 -0.024670819
000240 b2 6c 3d be 54 52 17 3e 75 69 44 bd 25 05 f3 3d
       -0.18498495 0.147775 -0.047952134 0.118662156
000250 f8 bb 02 bd 06 2a 62 3d 64 9e 9f 3b 43 75 36 3d
       -0.031917542 0.055215858 0.0048711766 0.044545423
000260 44 3c 48 3d 7c 1f c4 bd bb f2 b8 bd 3b a7 60 bd
       0.0488856 -0.09576318 -0.09030672 -0.054846983
000270 a9 89 20 3d 7e 10 13 3d cc b2 28 bd ce 9e 23 3e
       0.039193783 0.0359044 -0.04118614 0.15978548
000280 39 71 9c 3d 65 ab 27 3e 54 13 e0 3c af 3c 67 3c
       0.07638783 0.16373976 0.027352966 0.014113589
000290 99 fd cc bc 16 c8 2c be 53 65 b7 bd dd bd 11 3e
       -0.025023269 -0.16873202 -0.08954873 0.14232583
0002a0 83 72 4a 3c ec 1d 05 be 20 17 a2 3c 0b 27 22 3e
       0.012356403 -0.12999696 0.019786417 0.15835206
0002b0 49 a6 70 3d 60 5e b5 3d 03 2b 28 3e b9 af 82 bd
       0.058752332 0.08855891 0.16422658 -0.06381173
0002c0 1d 87 0c bc fe 91 b6 3d 81 02 c8 bd 42 3c 0d be
       -0.008577135 0.089145645 -0.097661026 -0.13792518
0002d0 dc 3b a2 bd ba e0 fb 3c 86 de dc 3b 3b 13 16 bd
       -0.079215735 0.030746806 0.006740394 -0.036639433
0002e0 de 75 00 3e e6 2e 77 bd fd 48 2a bd b0 57 ac bd
       0.12544963 -0.06034746 -0.041573513 -0.084151626
0002f0 44 a9 7a bd a3 5f db 3d 08 85 cf 3b 75 90 0d 3d
       -0.06119658 0.10711601 0.006332997 0.034561593
000300 17 a3 44 be 46 24 0c bd a9 a6 35 be de 54 3d 3c
       -0.19202839 -0.03421428 -0.17739357 0.011555878
000310 d9 b3 e2 bd f4 c9 17 3e 72 13 51 3d 1e 4b 76 3d
       -0.110694595 0.14823133 0.051043935 0.06013023
000320 90 13 35 3d 89 48 2b bd 7f b2 6d 3d 16 13 55 3d
       0.04420811 -0.04181722 0.058031555 0.052020155
000330 ab 18 e9 3d 44 a1 cd bd 47 47 9f bd dd a7 77 3e
       0.11381658 -0.100405246 -0.07777267 0.24185129
000340 e2 c9 81 bd fb fa 18 3d 7a 91 65 3d 30 9d 65 bd
       -0.06337334 0.03734873 0.05604694 -0.05605811
000350 60 81 cd 3d 69 63 ec 3d 6a 9a d4 bd 9f ab 6f bd
       0.10034442 0.115423985 -0.10381015 -0.05851328
000360 3e 8c e7 bc 05 bd 2c 3d 32 b3 f6 bd 34 67 12 3d
       -0.028265115 0.04217245 -0.120458975 0.035742953
000370 65 75 83 bd 53 4a 0d 3c 53 cd cb bd 50 9b aa 3d
       -0.064188756 0.008623677 -0.09951272 0.08330405
000380 98 e5 e7 bc c9 6b a0 bd 3c 9d 4a be 14 65 88 3d
       -0.028307721 -0.078330584 -0.19786543 0.06659904
000390 c3 2f 34 be 13 76 a2 3d 95 98 e2 3c 98 ca ad bd
       -0.17596345 0.07932677 0.027660647 -0.08485907
0003a0 a0 c9 da bd 97 98 6d bb 2e 96 eb 3b cb 63 9b bd
       -0.10682988 -0.003625428 0.0071895337 -0.075873934
0003b0 2e c1 f4 3c 09 dc 19 bd 64 4f b0 3d fe 19 36 3d
       0.029877272 -0.037563358 0.086088926 0.04445838
0003c0 ca eb 45 bb 08 e3 b2 3d ab a0 f5 bd 1d ed 3f 3d
       -0.0030200356 0.08734709 -0.119935356 0.04685699
0003d0 04 16 8f bc 38 e3 82 bb 13 8e 24 3b 3f 19 04 be
       -0.017466553 -0.0039943717 0.0025109097 -0.12900256
0003e0 6a 52 c0 3d 7e fe 60 3c c1 0d 0f bd 15 ae 03 be
       0.09390719 0.013732551 -0.034925226 -0.12859376
0003f0 3b d2 eb bc e4 26 35 3d 90 1d 02 bd e6 ce 26 3c
       -0.02878677 0.044226542 -0.031766474 0.010181164

model._hidden_layers.1._model.0.bias f4 [128]
000000 9a ae b2 bc 7e 83 dc ba 14 e7 9f bc 00 00 00 00
       -0.021811772 -0.0016823856 -0.019519366 0.0
000010 bd 62 90 3b 15 85 62 3c 11 4e 92 bc 00 00 00 00
       0.004406302 0.013825675 -0.01785949 0.0
000020 57 80 bf bb 38 8d cd bc 28 33 fa bb a4 21 1b bc
       -0.0058441567 -0.025091752 -0.007635493 -0.00946847
000030 90 ff 8e bc a1 9b d8 bb 01 1a be bb 35 da 83 3c
       -0.017455846 -0.0066103493 -0.0058014398 0.01609526
000040 b7 46 2c 3c 0d 01 2a bc 73 6e c9 bb 47 28 17 bc
       0.010514907 -0.010376227 -0.0061472 -0.009225911
000050 00 9e 19 bc 15 d4 6a bc 21 4e 32 3c c6 99 49 bc
       -0.009376049 -0.014332791 0.010882885 -0.012304729
000060 2d ae 41 3b 00 00 00 00 df 3c 68 bc 29 ac 0c 3c
       0.002955328 0.0 -0.014174669 0.008585968
000070 1f 1e 5c bc 00 00 00 00 18 68 93 bc 1b 0b d0 bb
       -0.013434916 0.0 -0.017993972 -0.00634898
000080 82 41 14 bc 6b e6 1b bc 3a 08 93 bc 36 2f 8a 3b
       -0.009048821 -0.009515385 -0.017948259 0.0042170538
000090 fc 61 d4 bb 00 00 00 00 4f 0f 26 bc 48 8b ff bc
       -0.006481407 0.0 -0.010135486 -0.031194344
0000a0 53 ed cf bc 5c 4d 5b bc 00 00 00 00 46 4e b1 bc
       -0.02538172 -0.013385143 0.0 -0.021643769
0000b0 ed 4a 31 bc 5e a6 83 bc 1c 54 a9 bb f7 19 aa 3b
       -0.010821086 -0.016070541 -0.0051674973 0.0051910835
0000c0 00 00 00 00 19 cb f6 3b 6b 4a 3a bc 8c 42 95 3c
       0.0 0.0075315353 -0.011370282 0.018220209
0000d0 0e 6c b7 bc 89 a5 11 bd 33 12 23 bc 66 6b 81 bc
       -0.022390392 -0.035558257 -0.0099530695 -0.015798282
0000e0 77 dd 86 bc c5 5f 6e 3c 30 27 01 bc bf d0 64 bc
       -0.016463025 0.0145492 -0.007882878 -0.013965785
0000f0 00 00 00 00 bd ce 10 bc 0e 9e 88 bc a4 26 e8 3c
       0.0 -0.008838353 -0.016676929 0.028338738
000100 b8 b7 c0 bc cf 36 1e 3c bd 49 7e 3c 00 00 00 00
       -0.023525104 0.009656622 0.01552051 0.0
000110 61 13 4a bc 43 dc 36 bc b3 ad 33 3b 00 00 00 00
       -0.012333722 -0.011160913 0.0027416765 0.0
000120 10 33 09 ba a5 4c cb bc 00 00 00 00 b2 09 1c bc
       -0.0005233744 -0.02481682 0.0 -0.009523796
000130 c5 dc c1 3c 00 00 00 00 c0 be af 3c b9 51 65 bb
       0.023664841 0.0 0.021453261 -0.0034991337
000140 36 91 27 bb 00 00 00 00 00 00 00 00 f8 18 8d 3b
       -0.002556873 0.0 0.0 0.004305955
000150 74 7e a0 bb 8e ce 76 bc c6 20 38 bc 56 13 80 bc
       -0.004897887 -0.015063895 -0.011238283 -0.01563422
000160 15 2d d5 bc aa 8f 57 bc df bc 85 3a 0d c5 da 3b
       -0.026022473 -0.013156811 0.0010203383 0.0066763223
000170 2b e1 3a bc 07 d1 25 3b b2 2c 55 3c 6d d6 b6 3c
       -0.011406223 0.0025301592 0.0130111445 0.022319043
000180 5c c7 84 bc 06 6f 4d bb 47 bd 29 bc 00 00 00 00
       -0.016208343 -0.0031346693 -0.010360069 0.0
000190 e2 ce b3 bb 44 85 80 bc 23 1b 8e 3c 77 1e 7a bc
       -0.005487309 -0.015688546 0.017346924 -0.015266052
0001a0 9c d4 be 3c 44 59 b5 bc 06 69 18 3b b5 ac 91 bc
       0.02329474 -0.022137292 0.0023255958 -0.017782548
0001b0 85 d7 c7 bc d7 00 85 bc 1f 2c e4 bb 4a 3d 4a 3c
       -0.02439476 -0.016235752 -0.0069632675 0.012343714
0001c0 7a 3c 0e 3d cb e1 1b bc aa 1d 61 bc ac 6b bf bc
       0.034725644 -0.009514282 -0.013739983 -0.023366772
0001d0 ed 29 af 3c f9 b4 9a bb 2f cb 47 bb 00 00 00 00
       0.021382296 -0.0047212807 -0.0030486097 0.0
0001e0 c7 c3 49 bc f0 64 45 bc 13 29 07 3b 1a 37 b9 3b
       -0.012314743 -0.012047991 0.0020623847 0.0056523206
0001f0 9c 9c 8b bc 46 5a fe ba d9 28 98 bc 7a 06 92 bc
       -0.01704245 -0.0019405566 -0.018574165 -0.017825354

model._hidden_layers.2._model.0.weight f4 [64, 128]
000000 c1 a6 c8 bd 49 85 0a bd a4 73 ab bd c5 07 b6 bb
       -0.09797431 -0.033818517 -0.08371666 -0.0055551254
000010 cc fc 78 ba fc 5f a4 3c 84 6c 42 bd 25 84 0b be
       -0.0009498119 0.0200653 -0.04746677 -0.13624628
000020 a2 1d 94 3d df 54 d9 bd 40 2b 85 bd 66 9c 96 3d
       0.072322145 -0.10611891 -0.0650239 0.073540494
000030 56 ab 3a 3c 89 c3 db bd 1b a4 4b bd e4 5f 16 be
       0.011393389 -0.10730655 -0.04971705 -0.14685017
000040 5d 40 87 3c 71 12 26 be 61 d9 a6 3d bb c9 f5 3d
       0.016510183 -0.16217972 0.081469305 0.12001368
000050 b3 4b d7 bd e4 24 c4 bd 9b 04 d9 bd 36 6d 9d bd
       -0.10512485 -0.09577349 -0.105965815 -0.07686846
000060 3a 41 84 bc c6 52 d2 bd a0 23 c0 3b c0 51 a3 3d
       -0.016144384 -0.10269694 0.005863622 0.07974577
000070 d5 b5 7e bd 4f a3 16 3e 3c 67 10 3e db 3c 9c 3d
       -0.062185127 0.14710735 0.14101881 0.07628795
000080 36 21 03 3e dc 86 b9 bd fe bc 12 bd 4e 49 b3 bc
       0.12805638 -0.090589255 -0.03582477 -0.02188554
000090 cb 80 0b 3e 96 60 31 3c 13 2b 9d 3d cd ba cf bd
       0.1362335 0.010826251 0.076742314 -0.10143051
0000a0 b1 3d 91 bc 45 08 2b 3c c1 1d ba bd f2 58 84 3d
       -0.017729612 0.010438983 -0.09087706 0.064622775
0000b0 83 92 69 bd 30 ec 88 bc 3b fd 03 bd 69 6a d6 bc
       -0.05702449 -0.016714185 -0.03222392 -0.026173787
0000c0 c0 e5 8e 3d 82 f6 e3 bd a2 8c 05 be 64 a8 00 be
       0.06977415 -0.11131002 -0.13041928 -0.12564236
0000d0 37 3e 16 bd 37 56 ed bd 35 d0 f7 3b 90 23 92 3d
       -0.036680426 -0.1158871 0.007562662 0.07135689
0000e0 a3 b6 35 3d 35 92 c2 bd 5c 86 dd bd 05 c0 11 be
       0.04436363 -0.09500543 -0.10816643 -0.14233406
0000f0 05 a6 6a 3e d5 76 aa 3d ee a9 89 3d 90 e4 13 bd
       0.22914894 0.08323447 0.06721865 -0.036106646
000100 46 eb 3e bd 25 61 ea bd 10 70 28 3d fb ae 80 3c
       -0.046611093 -0.1144431 0.041122496 0.015708437
000110 dd 67 8e bd 97 f3 15 bc 39 d5 a4 3d 7d 55 fb bd
       -0.06953404 -0.009152315 0.080484815 -0.12272165
000120 15 a7 80 3d fb 9b 23 be 2d f8 e9 3d af 83 0e 3e
       0.06281868 -0.1597747 0.11424289 0.13917421
000130 67 8b 98 bd 99 5a 54 3d 2a a9 0f bd 53 32 1e 3d
       -0.07448464 0.051844213 -0.035073437 0.03862221
000140 9b 19 d1 bc da e9 32 3c 69 76 79 bd 91 8d d5 bd
       -0.025524905 0.010920012 -0.06090394 -0.10427392
000150 fb b2 82 bd 29 0e 80 3d c7 d8 ff bd e5 39 99 bd
       -0.06381794 0.06252701 -0.12492519 -0.07481746
000160 81 db 73 bd e8 73 12 3e 42 c5 67 bc 4d 6a df bb
       -0.059535507 0.14302027 -0.014146151 -0.006818092
000170 d9 ff da bc a1 05 44 3d 21 3c 01 bd c2 d1 b1 3d
       -0.026733326 0.04785693 -0.031551484 0.08682586
000180 69 df 88 bd fe 95 de 3d 2a c0 18 3e ad 16 15 3e
       -0.06683237 0.108684525 0.14917055 0.14559431
000190 8a fe 06 be e4 6f 50 3e b9 17 26 3d cb a0 09 3e
       -0.13183036 0.20355183 0.040549967 0.13440244
0001a0 58 98 57 bd 2e d7 c9 bd dc 94 44 bd b6 da 77 3d
       -0.05263552 -0.098554954 -0.047993526 0.060511313
0001b0 63 79 f6 3d 9b cd 3e b9 a6 a9 06 be 54 bf 39 bd
       0.120348714 -0.00018196406 -0.13150653 -0.04534848
0001c0 87 2b 7d bd 89 35 a3 bd 6a 31 1d be ed e5 60 bd
       -0.06180909 -0.079691954 -0.15350881 -0.054906774
0001d0 27 39 23 3e a5 f8 11 3d 9d 76 76 bd 57 f9 59 3b
       0.1593977 0.035637517 -0.060171712 0.003326019
0001e0 c8 51 0a b9 63 26 89 3d dd fc 3a 3e a4 ca 6f bd
       -0.00013191171 0.06696775 0.18260522 -0.058542863
0001f0 0c 4b b4 bd a8 31 35 3d b7 37 bb bd 12 6b 22 3c
       -0.088033766 0.04423681 -0.09141486 0.009913223
000200 4c b2 bf bd 80 dc 6f bb a9 5c d9 3d 84 f7 ea bd
       -0.09360179 -0.0036599934 0.10613377 -0.11472991
000210 9a 80 16 3e ad ac 56 bc e9 36 44 bb 79 dc 14 3d
       0.14697495 -0.013102693 -0.0029939956 0.03634307
000220 cf 52 d1 bd 1f a5 79 bc b2 4a 9a bd 45 d8 99 3b
       -0.102208726 -0.015237122 -0.07533778 0.004694971
000230 ed d1 a0 3c a3 98 d4 bc 6b d2 4a 3c e2 30 0c 3e
       0.01963135 -0.02595169 0.012379269 0.13690522
000240 e2 72 0a bd 4e 39 d5 bd d1 ec 1e 3e 69 26 f8 bd
       -0.033800967 -0.104113206 0.15520026 -0.12116701
000250 65 84 02 3e 28 de 20 be 9a 07 74 3d 69 e4 03 bd
       0.12745817 -0.15709746 0.059577562 -0.03220025
000260 8e 44 28 be 21 31 2d 3c 21 f8 dd bd be 67 58 bc
       -0.16432402 0.010570795 -0.108383425 -0.013208328
000270 82 7b 01 bd 68 b5 2d 3e 79 1c 02 be 20 33 b2 3d
       -0.031611927 0.16963732 -0.12706174 0.087011576
000280 fe 88 c7 bd d8 53 5c bd ee da 62 bb ef 5c 3e be
       -0.09742926 -0.053790897 -0.0034615356 -0.18590139
000290 f2 99 5a be f1 bd 62 bd 10 3e 00 be 09 9f 69 bd
       -0.21347788 -0.055356923 -0.12523675 -0.057036433
0002a0 0a 1b 14 3e 86 f1 1f 3d a2 61 07 be 8b f8 2d 3d
       0.1446344 0.039048694 -0.13220838 0.042473357
0002b0 99 b9 55 3c 92 25 fb bc b8 af 53 be 8d 16 23 bd
       0.013044738 -0.030657563 -0.206725 -0.039816428
0002c0 f2 b1 1e 3e ba 05 b8 3d 2e fa da 3d 9f f8 b9 3c
       0.15497568 0.08985467 0.10692249 0.02270156
0002d0 a2 a3 85 bd 41 c7 35 3c 5e 3d ea bc 9c b0 c8 bc
       -0.06525351 0.011094869 -0.028593715 -0.024498276
0002e0 44 22 a3 bc 25 23 e6 bd 9e 57 ef 3d 83 30 b5 bc
       -0.0199138 -0.11237172 0.116866335 -0.022117859
0002f0 5b fe 50 bd bf e7 4a be 02 67 b0 3d 57 ff a2 bd
       -0.051023822 -0.19814967 0.08613397 -0.079588585
000300 e6 f0 77 bc ef f6 98 bd 3c 3e a3 bc e2 7b 0a bd
       -0.015133118 -0.07468974 -0.019927137 -0.03380955
000310 93 ca 36 be 24 2e ba 3d a0 b3 ac 3c 0d 2b e5 bd
       -0.17850713 0.09090832 0.021081746 -0.11189852
000320 d7 ba 70 3d 07 03 a3 bb 47 a6 fd bc ae 5a 7c bd
       0.058771934 -0.004974726 -0.030963076 -0.061609916
000330 b3 c3 9c 3c 52 8f 6d 3c 56 87 96 bd af d8 6a be
       0.019136285 0.014499502 -0.07350032 -0.2293422
000340 61 9f 69 3d e4 cb 00 3e b1 be 64 bb af c3 e4 3c
       0.05703676 0.12577778 -0.00349037 0.02792534
000350 ab fc 34 be 17 9c 37 be 45 fb fd bd 6c de 77 3d
       -0.1767451 -0.17930637 -0.124014415 0.060514852
000360 d4 6c 4e 3d 02 1e f6 3d a7 3b 8f 3c e6 9f 02 3d
       0.050396755 0.12017442 0.0174845 0.031890772
000370 97 a9 55 3d 23 72 91 bd 79 25 d2 3d a9 de be 3d
       0.052163687 -0.07101848 0.102610536 0.09319813
000380 26 d5 88 bb 3f 1c 05 3d 00 b8 84 bd 5f fb 33 bc
       -0.0041758 0.03249764 -0.06480408 -0.0109852245
000390 73 99 9e bd ac c2 96 bd 74 ba bf bd 12 c3 08 be
       -0.07744112 -0.073613495 -0.09361735 -0.13355663
0003a0 39 91 ac 3b d3 b2 1c 3c e8 5c 6d 3d 3f 97 41 be
       0.0052663353 0.009564119 0.05794993 -0.18905352
0003b0 13 dd 16 be 75 c7 3e bd 0e 08 07 bd 2f 78 79 3c
       -0.1473277 -0.046576936 -0.032966666 0.015226408
0003c0 a5 7a a0 bc 32 94 f9 3d 40 72 30 3e 06 a2 38 3e
       -0.019589731 0.12186469 0.17231083 0.18030557
0003d0 30 52 0f bd fe 19 11 3e c0 db 94 bd 73 a1 79 bc
       -0.03499049 0.14170071 -0.072684765 -0.015236246
0003e0 34 55 af bc 3d 6f d9 3c 33 38 f8 bc 1c d2 31 bd
       -0.021402933 0.0265423 -0.030300235 -0.043413267
0003f0 47 91 3b bc 73 8b 3e 3d cf b9 8d ba 8b 26 86 bb
       -0.011448211 0.046519708 -0.0010812822 -0.00409395

model._hidden_layers.2._model.0.bias f4 [64]
000000 80 77 3e bb 0e 28 94 3a 72 06 20 3c 2b 3a 1e bd
       -0.0029062927 0.0011303441 0.009767162 -0.038629692
000010 08 63 80 bb 2a 2f e7 3c 18 ef e4 3a 35 c2 80 bb
       -0.0039180554 0.028220732 0.0017466275 -0.0039294013
000020 95 4e dc bc 73 f6 b0 bb e1 13 08 3c 10 df 60 3c
       -0.02689294 -0.005400473 0.008305521 0.013725057
000030 f0 ca 99 ba a8 f2 82 3b 4f 76 96 3b 84 2c 89 3c
       -0.0011733454 0.003996212 0.00459174 0.01674486
000040 d8 ff 54 3c 84 b6 15 bd 12 3d 3b 3d 32 46 e1 3c
       0.013000451 -0.036551014 0.045712538 0.027499292
000050 c2 4f c4 bc a1 df 16 bc 97 3a 19 3d ca 37 a3 3c
       -0.023963813 -0.009208591 0.03740939 0.019924063
000060 97 fc 7d bc a5 6b 7a 3c c7 0c 4b bb 6a e2 1d 3d
       -0.015502117 0.0152844535 -0.0030982958 0.038546003
000070 1b 99 46 bc 30 09 09 3d 61 a4 b4 bb 35 a2 59 bc
       -0.012121464 0.033456028 -0.0055127596 -0.013283302
000080 3c 14 e4 bc 0f 89 b4 ba 4f 45 0f 3c c1 12 18 3d
       -0.02784168 -0.0013773757 0.008744552 0.03712726
000090 24 e0 68 3a fd cd 1d 3b bc 1c b0 bb 42 97 37 3c
       0.0008883497 0.0024079077 -0.005374519 0.011205496
0000a0 31 37 4b bc 0b 2b 27 3d 65 2f 13 bc 51 8b 9b bb
       -0.012403295 0.040812533 -0.008983468 -0.0047468324
0000b0 bd eb ae bc 7d 00 eb bb 05 f5 53 bc 94 f8 71 3c
       -0.021352643 -0.007171689 -0.012936835 0.014768738
0000c0 0f 22 48 bc 57 da 99 bc a4 75 e2 bc 1e ba 7e 3c
       -0.012215151 -0.01878087 -0.027643986 0.0155473035
0000d0 a7 e6 5a 3c 68 d2 96 bc b7 e4 5c bc 63 7b ee bb
       0.013360656 -0.018410876 -0.013482264 -0.0072778924
0000e0 50 af c4 bc a9 1f 82 3c 69 42 7c bc 04 92 1e 3d
       -0.024009377 0.015884237 -0.015396693 0.03871347
0000f0 df f7 6f 3c a8 70 36 3c cc 6a b2 bc 90 6a 25 3d
       0.014646499 0.011135258 -0.02177944 0.04038483

model._value_branch_separate.0._model.0.weight f4 [128, 78]
000000 bd 9c 09 bd 87 36 01 3e f6 6b 1f bd 12 8a 01 3e
       -0.033596743 0.12618457 -0.03892132 0.12650326
000010 dd ae d5 3d 08 8f a6 bc df 2e 9f bd ef 22 9d 3e
       0.10433743 -0.020331874 -0.07772612 0.30690715
000020 96 41 92 3d 01 1a 8a 3d 6c 21 0d 3e bd 51 ea 3d
       0.07141416 0.06743241 0.1378228 0.114413716
000030 7b 7e 0c 3d b6 28 4b bd f5 8d 6a be 49 bc 7b 3e
       0.03430031 -0.04959937 -0.22905715 0.24583544
000040 80 01 c9 bc a3 42 8e bb f9 c5 09 be 71 8d 10 bd
       -0.024536848 -0.00434144 -0.13454427 -0.03529114
000050 14 7f e0 bd 84 9d 8a bd 82 fe fb 3c cb 4d 1f 3e
       -0.10961738 -0.06768325 0.030761007 0.1555702
000060 d7 54 0c 3e 53 54 f2 3c dd 03 c7 bd 32 4e 30 be
       0.13704239 0.029581225 -0.09717534 -0.17217329
000070 09 63 08 3d 26 51 a5 bc 3c 53 d1 3d f9 a0 d9 3d
       0.033297572 -0.020180296 0.10220954 0.10626406
000080 46 c9 06 be c6 d5 24 3c 44 16 4c bc 1a cb cf bd
       -0.13162717 0.010060733 -0.01245648 -0.101461604
000090 e8 5e 42 3c ab 1f 39 bc 2d bd 89 3d 71 4e b9 3d
       0.011863448 -0.011299054 0.067255355 0.09048165
0000a0 42 b5 09 3e 4c a4 22 bb 52 3f d3 bd 04 cc 96 bd
       0.1344805 -0.0024817167 -0.10314812 -0.07363132
0000b0 9a ca 8d bc 07 86 e0 bd b6 c6 1b be aa 8d cf bd
       -0.017308522 -0.10963064 -0.15212521 -0.10134442
0000c0 95 22 6b bd 2f 58 31 bd de a0 9d be 0b 97 41 3d
       -0.057406027 -0.04329699 -0.30786794 0.047263186
0000d0 cd 1a 21 bd 52 a9 0e be 49 e7 65 be a2 43 06 be
       -0.0393322 -0.13931778 -0.2245151 -0.13111737
0000e0 34 c5 c8 3d 7d 00 ea 3d 92 10 8b bd 95 e0 8f bd
       0.098032385 0.114258744 -0.0679027 -0.070252575
0000f0 b6 74 b7 bd dd 18 18 3e cc 58 56 be 2c c8 24 3d
       -0.08957808 0.14853235 -0.20932311 0.04022996
000100 2c 10 e4 3c 67 f6 81 be c3 a7 a5 3c e2 01 d5 bc
       0.027839743 -0.25383303 0.020221597 -0.026001874
000110 67 c8 bf 3a ef 9d 2a 3d 99 36 73 bd 5e 11 c9 3d
       0.0014631868 0.041654523 -0.05937824 0.09817766
000120 b7 c5 6a bc e8 0a 46 3d 61 76 d3 bd 23 1f 10 be
       -0.014329365 0.048350245 -0.10325313 -0.14074378
000130 3b 17 4a bd d9 c6 01 3e 4e cb 06 3d 5c 23 7d 3d
       -0.04933856 0.1267351 0.03290873 0.0618013
000140 16 bf 7d bd 05 41 60 3d 15 91 98 bb 84 1b 08 be
       -0.061949812 0.054749507 -0.004655967 -0.13291746
000150 8b eb 92 3d 95 0e f4 bd e6 6a 1d 3e 86 f9 49 bc
       0.071738325 -0.11916844 0.1537281 -0.012327557
000160 5d 0c f5 bc 9a c1 27 3e 7a 22 48 be 55 08 15 be
       -0.029913122 0.16382447 -0.19544402 -0.1455396
000170 69 68 a9 3d 04 fc 92 bd 83 62 01 bd b4 57 0a bc
       0.08271868 -0.071769744 -0.03158809 -0.008443762
000180 f8 c6 67 be 65 d5 98 bd 62 13 7b bc 40 f0 68 3e
       -0.22634494 -0.07462577 -0.015324445 0.22747898
000190 13 93 0e be 63 2f 37 be 9d 2f d4 3d 10 94 69 3d
       -0.13923292 -0.1788917 0.10360644 0.05702597
0001a0 a2 11 94 3c 15 f4 10 bc ad 87 99 bd 04 2a b4 3d
       0.018074814 -0.008847256 -0.07496581 0.08797076
0001b0 26 34 5d be 1a d9 90 3c 00 4a de bd 02 4d 25 bc
       -0.21601924 0.017681647 -0.10853958 -0.010089161
0001c0 1c 8e db 3d 2f 05 d3 bd 8c b8 61 be 6a cd 74 be
       0.107204646 -0.10303723 -0.22043055 -0.23906484
0001d0 11 07 4f bd fe c2 38 3e 10 ce 81 3b d1 17 00 3d
       -0.05054385 0.18043134 0.003961332 0.031272713
0001e0 72 bb 15 3e e0 67 b5 3d ab 91 80 bd e7 32 9a bd
       0.14622286 0.08857703 -0.06277784 -0.0752924
0001f0 6b 62 8e bc 86 a0 48 3c 58 da fa 3d 7e c6 8b 3d
       -0.017380914 0.012245303 0.12248677 0.06824969
000200 78 38 77 3e 62 02 6b bd b8 39 a1 3d f2 26 0b 3c
       0.24142635 -0.05737532 0.07872337 0.008493172
000210 61 27 99 3d 63 70 94 3d f4 12 6c be 57 10 e8 3c
       0.07478214 0.072479986 -0.23054105 0.028328104
000220 b1 e9 d1 bd 84 63 18 bd e5 64 39 bd 8a d3 5a bd
       -0.10249651 -0.03720428 -0.045262236 -0.053424396
000230 5b 22 e7 3d 0b fb a1 bd 05 74 9a 3c ba 8c 8e 3d
       0.1128585 -0.07909211 0.01885415 0.06960435
000240 ab c2 17 3e 56 cf 9d 3e 3a ce 0f bd cf 1f 42 3d
       0.14820354 0.30822247 -0.035108782 0.047393616
000250 f5 b4 e5 bb cf 88 0a 3d aa af 22 3c d6 87 0d be
       -0.007010097 0.033821877 0.009929577 -0.13821349
000260 ce c5 8a bd c2 aa df 3d 97 d9 93 bc a0 f5 25 be
       -0.067760095 0.10921241 -0.01804809 -0.1620698
000270 34 fc 85 3c d4 58 da bc 02 7e 58 bd 38 91 fb bd
       0.016355611 -0.026653685 -0.052854545 -0.12283558
000280 71 1a 98 bc 43 7f a2 3d dc 4a 51 be 17 d0 8a bc
       -0.018567296 0.079344295 -0.20438713 -0.016944928
000290 c7 c6 4f 3b 6e 33 2f bd 0e d7 84 bd 48 ee 04 3e
       0.0031704174 -0.042773657 -0.06486331 0.12981522
0002a0 1c 77 06 bd fe 43 6c 3e ad 35 92 bd 78 ed 27 bd
       -0.032828435 0.23072812 -0.07139144 -0.040997952
0002b0 ba 1c 68 3d 28 ef 26 be a0 d9 53 3d 36 59 2d 3c
       0.05666802 -0.16302168 0.051721215 0.010580352
0002c0 26 8a 23 3e de 5e 8c bd 80 73 6a 3e 6c 3d 49 3d
       0.15970668 -0.06854032 0.22895622 0.049130842
0002d0 d8 28 38 3d 56 c3 60 3e 5e 89 d4 bd 41 68 ec 3b
       0.044960827 0.21949515 -0.10377763 0.0072145765
0002e0 70 bc 23 3c c6 96 7e 3d 10 ec f6 3d af 00 ab 3a
       0.0099936575 0.062155508 0.12056744 0.0013046468
0002f0 f3 2a 18 be 15 2e 9d 3d 44 a4 ee bd 05 55 d3 bd
       -0.14860134 0.07674805 -0.11652425 -0.103189506
000300 76 71 2f bd 25 26 72 3d 87 b4 c9 bc 14 7d 6c 3d
       -0.042832814 0.05911841 -0.024622215 0.05773647
000310 0b 94 e6 3d 91 f8 00 3e 28 6b 81 bd b3 c2 18 bd
       0.11258706 0.1259482 -0.063192666 -0.037295055
000320 ae 6e 9a 3d 0d 7e c6 bd 77 08 54 bd 75 ab 28 3c
       0.07540642 -0.09692011 -0.051765885 0.010294785
000330 a1 84 85 3e df 51 9a 3c f2 84 d8 3e 77 be 1f be
       0.2607775 0.018837867 0.4228893 -0.156
000340 8b 04 ec 3b 17 7a f4 bd c8 ce 15 3e 8a f8 23 3e
       0.00720269 -0.11937349 0.14629662 0.16012779
000350 28 0d 95 3d c8 59 48 3e 9a 81 26 bc 71 94 01 3e
       0.072779 0.19565499 -0.010162735 0.12654282
000360 38 e0 0a 3d 68 e2 f0 bd a0 8b cc 3d ee 75 ec 3d
       0.033905238 -0.117619336 0.09987569 0.11545931
000370 30 57 25 bd 43 2e 64 be 7e 94 8b bd 42 9c 5b 3c
       -0.04036635 -0.22283272 -0.06815432 0.013403954
000380 20 1c fe 3c 78 f1 23 bd c7 25 a0 3c a8 6a e9 3d
       0.03101927 -0.040025204 0.019549264 0.11397296
000390 7a a4 d6 bd ea ad 4e 3e 49 67 9a bd 48 6f 34 be
       -0.1048059 0.2018353 -0.07539231 -0.17620575
0003a0 91 e7 f4 bc af 48 33 3e 6d 5b 88 3d e2 01 92 bd
       -0.029895576 0.17508195 0.06658063 -0.07129265
0003b0 3f ca 56 3b a7 d6 93 bd c1 12 fe 3d 94 02 0e 3d
       0.0032774357 -0.07218676 0.12405921 0.034670427
0003c0 ef 2c 2b 39 63 15 c6 3d 73 95 d4 bd a7 2b 65 be
       0.0001632457 0.09672048 -0.10380068 -0.22379933
0003d0 d6 10 94 3d e6 ed e2 bc a2 7d 25 3b e6 ef be 3d
       0.07229774 -0.02770133 0.0025251885 0.09323101
0003e0 77 fe 82 3d 6c 98 f8 bd 9c e0 f1 bd 89 f3 4e 3e
       0.063961916 -0.12138447 -0.11810419 0.20210089
0003f0 46 31 dd 3b a8 d8 57 bd 58 c1 9d bc bf 57 5e 3e
       0.0067502586 -0.052696854 -0.019257233 0.2171316

model._value_branch_separate.0._model.0.bias f4 [128]
000000 00 00 00 00 00 00 00 00 ef 4d eb 3c 8b 68 72 3c
       0.0 0.0 0.028723685 0.014795433
000010 00 00 00 00 8c a3 3e bc ab d4 08 3d 5f 45 cc 3c
       0.0 -0.011635672 0.03340594 0.024935422
000020 00 00 00 00 00 00 00 00 54 4e 3e bc a3 50 70 bb
       0.0 0.0 -0.011615355 -0.0036669157
000030 a5 99 01 3d dd f7 fb bc ce 8d 19 bc 7e 8f d4 3c
       0.031640667 -0.030757839 -0.009372188 0.025947329
000040 a1 e7 ff 3c fe 9c e5 bb d1 d5 9c 3c 00 00 00 00
       0.031238379 -0.0070072403 0.019144924 0.0
000050 07 4a 44 3c 00 00 00 00 00 00 00 00 5d 38 b5 3c
       0.01198054 0.0 0.0 0.022121603
000060 00 00 00 00 5e ab d8 3c 69 cd 02 3d e6 bd df 3c
       0.0 0.026448902 0.031934176 0.02731223
000070 32 4a 13 bb 00 00 00 00 00 00 00 00 31 0f f7 3c
       -0.0022474644 0.0 0.0 0.030158611
000080 00 00 00 00 00 00 00 00 8a 8f 1a 3c 00 00 00 00
       0.0 0.0 0.009433636 0.0
000090 00 00 00 00 f5 fd cd 3c 1e 0e 1d bc ca 30 3a bc
       0.0 0.02514551 -0.009585885 -0.011364171
0000a0 98 3c 03 3d c8 7f e1 3c 00 00 00 00 5e b8 e3 3c
       0.03204021 0.027526751 0.0 0.027797874
0000b0 7b 93 0a 3d 00 00 00 00 00 00 00 00 00 00 00 00
       0.033832055 0.0 0.0 0.0
0000c0 12 9d 79 3c f2 2c c6 3c 7c 5b 06 39 00 00 00 00
       0.015235202 0.024191353 0.00012813316 0.0
0000d0 00 00 00 00 76 fe fc 3c 00 00 00 00 fe 73 a0 3c
       0.0 0.030883055 0.0 0.01958656
0000e0 f7 7c f9 3c 00 00 00 00 f0 cd 04 3d ce 9c 95 bc
       0.030455096 0.0 0.03242296 -0.018263247
0000f0 00 00 00 00 00 00 00 00 8d 65 35 bb 67 0c ad bc
       0.0 0.0 -0.0027678937 -0.021124078
000100 60 f7 d0 ba 20 1a 05 3d 00 00 00 00 00 00 00 00
       -0.0015942864 0.032495618 0.0 0.0
000110 00 00 00 00 00 00 00 00 b0 5c 01 3d 00 00 00 00
       0.0 0.0 0.031582534 0.0
000120 00 00 00 00 00 00 00 00 0c 95 04 3d 4b 33 3a bb
       0.0 0.0 0.032368705 -0.002841192
000130 00 00 00 00 40 92 1a bc 20 a5 83 bc 00 00 00 00
       0.0 -0.009434283 -0.016069949 0.0
000140 00 00 00 00 1b f1 80 3c 00 00 00 00 fc 78 04 3d
       0.0 0.015739968 0.0 0.032341942
000150 ca bd 4b 3c 00 00 00 00 00 00 00 00 00 00 00 00
       0.012435386 0.0 0.0 0.0
000160 00 00 00 00 26 0a f0 3c 00 00 00 00 06 95 bf 3c
       0.0 0.029301714 0.0 0.02338649
000170 cc 01 81 bc 15 5b 1b bc 00 00 00 00 c8 4b f9 3c
       -0.015747927 -0.009482165 0.0 0.030431643
000180 00 00 00 00 f3 62 28 bc 8b e1 af 3c b6 62 c1 3c
       0.0 -0.010277498 0.021469852 0.02360664
000190 f7 89 e4 3c b7 8b 04 3d 00 00 00 00 a5 88 d5 3c
       0.027897818 0.032359805 0.0 0.026066134
0001a0 00 00 00 00 98 b2 cf b9 00 00 00 00 8d ce 86 3c
       0.0 -0.0003961518 0.0 0.016455913
0001b0 00 00 00 00 00 00 00 00 00 00 00 00 f4 9e dd 3c
       0.0 0.0 0.0 0.027053334
0001c0 cc 73 cf 3c f0 75 f4 3c a6 e6 ef 3c ae ea be 3c
       0.025323771 0.029841393 0.029284786 0.023305263
0001d0 3f 81 f7 3c 81 ea d7 3c 90 94 5f bc 2b 1d 04 3d
       0.030212997 0.026356937 -0.01364626 0.03225438
0001e0 00 00 00 00 3e 37 fb 3c 00 00 00 00 00 00 00 00
       0.0 0.03066599 0.0 0.0
0001f0 6e fb 24 bc 00 00 00 00 c8 a4 48 3c 94 91 b2 bb
       -0.010069711 0.0 0.012246318 -0.005449483
