Source/GameAI_Project/Scripts/training_results/20251201_003806/rl_policy_network.onnx (onnx, 288945 bytes, 15 tensors)

model._logits._model.0.weight f4 [16, 64]
0	0x36ee2afc	7.0979568e-06
1	0x3a840c41	0.0010074453
2	0xbb815000	-0.0039463043
3	0xba94ba20	-0.0011346973
4	0x3a3f61d5	0.000730065
5	0xbb0f84ff	-0.002189934
6	0x3a9d79ac	0.001201441
7	0xbb73685d	-0.0037141063
8	0xbb990daa	-0.0046708183
9	0xb9928437	-0.00027945798
10	0xbb76ee0f	-0.0037678515
11	0xbb14e9b6	-0.002272231
12	0xbb886955	-0.004162947
13	0xbba21fa3	-0.004947619
14	0xba74f0b5	-0.00093437295
15	0xbb258baf	-0.002526026
16	0xbb6d2dd3	-0.0036190643
17	0x3a5f0117	0.00085069373
18	0xbb59a3c5	-0.0033209187
19	0x3be67bc2	0.007033796
20	0xbb7e9e54	-0.0038851695
21	0xbb0e8090	-0.002174411
22	0xb9bb8b9a	-0.0003577143
23	0xbae7a4c0	-0.0017673001
24	0xbbc97c21	-0.0061488305
25	0x38e2bbc3	0.00010811493
26	0xbae02551	-0.0017100965
27	0x3b4a0fa6	0.003083208
28	0x3b25095c	0.002518258
29	0x3b04fa52	0.0020290804
30	0xba136e5e	-0.0005624051
31	0xbbb292d7	-0.0054496336
32	0xb95bce16	-0.0002096224
33	0x3b37a5a0	0.0028022304
34	0xbb28be87	-0.0025748329
35	0xbbb8a045	-0.00563434
36	0xba39b06b	-0.0007083478
37	0xb8f0c627	-0.000114810005
38	0x3a9ac2a2	0.0011807273
39	0xbb678c2b	-0.003533135
40	0xbbc806b4	-0.0061043147
41	0x3b8b288e	0.004246778
42	0xbb903cd6	-0.0044017835
43	0xbbd0b333	-0.0063690185
44	0xb995a322	-0.00028541038
45	0x3a391895	0.0007060853
46	0x3aad63b1	0.0013228563
47	0x3b914619	0.004433405
48	0x3a877e97	0.0010337409
49	0xbbac8187	-0.0052644643
50	0x39995c37	0.0002925114
51	0x3a8853f4	0.0010400997
52	0x3b223a3e	0.0024753953
53	0x39d71fb9	0.0004103163
54	0x3a1c36a8	0.0005959072
55	0xbbcb4c42	-0.006204159
56	0xbbbaf6dc	-0.0057056975
57	0x3aa59837	0.0012633865
58	0xbbc20ac4	-0.0059216935
59	0xbb9dfd57	-0.00482146
60	0xbb493ac2	-0.0030705188
61	0x3bceb19c	0.006307794
62	0x3a5a9517	0.0008338256
63	0xbb96f6f9	-0.004607078
64	0x3aeb6ef8	0.0017962148
65	0x3a9ade72	0.0011815561
66	0xbc00ba68	-0.007856943
67	0xbb0a184e	-0.0021071616
68	0x3984a8db	0.0002530281
69	0xbb6a276a	-0.003572906
70	0xb9e91237	-0.00044454794
71	0xbbad2cb6	-0.005284871
72	0xbba5feb1	-0.005065762
73	0xba06ada0	-0.00051375665
74	0xbb6efdef	-0.0036467274
75	0x3a68017c	0.0008850319
76	0xbb43e545	-0.0029891294
77	0xbb9ed494	-0.0048471186
78	0xb980d73e	-0.0002457443
79	0xbb0587ac	-0.0020375056
80	0xbbb41bbb	-0.00549647
81	0x37f2e474	2.895503e-05
82	0xbbf66d0e	-0.0075203246
83	0x3bf35f99	0.0074271676
84	0xbaa693cf	-0.0012708845
85	0xbc054519	-0.00813415
86	0x3aeb2612	0.0017940423
87	0xba2d14ec	-0.0006602544
88	0xbb767e4b	-0.0037611898
89	0x3a1abd2c	0.00059028226
90	0xba0b6ec1	-0.0005318933
91	0x3a47cb5a	0.00076215493
92	0xba99c317	-0.0011731115
93	0xba2413da	-0.00062590616
94	0x3ab8670c	0.0014068796
95	0xbc053036	-0.00812917
96	0xbb129598	-0.0022366997
97	0xbb058826	-0.002037534
98	0xbada6a34	-0.0016663731
99	0xbbc199ed	-0.005908242
100	0xbae70893	-0.0017626457
101	0xbab78cd6	-0.0014003764
102	0x3a12c9b3	0.00055995135
103	0xbba6dc44	-0.0050921757
104	0xbb9f51aa	-0.00486203
105	0xbc0f26d6	-0.008737287
106	0xbb60e622	-0.0034316857
107	0xbbf796f6	-0.0075558377
108	0x3aa58b92	0.0012630096
109	0xba83fe70	-0.0010070335
110	0x3abe6377	0.0014525492
111	0xbac84800	-0.0015280247
112	0xba4529f0	-0.0007521203
113	0xbbca3dd2	-0.0061719203
114	0xbba0420e	-0.004890687
115	0x37db4ad9	2.6141688e-05
116	0xbb4c3c65	-0.0031163928
117	0x39af7cdf	0.00033471637
118	0x3aad783d	0.0013234686
119	0xbb897030	-0.004194282
120	0xbb5eb4eb	-0.0033982347
121	0xb9384663	-0.00017573829
122	0xbb4ab6b1	-0.0030931646
123	0xbbc70043	-0.0060730292
124	0xbbfc038f	-0.007690854
125	0xbab91634	-0.0014120997
126	0xb99a5223	-0.00029434366
127	0xbbb2edbc	-0.005460469
128	0xbac06a64	-0.0014680144
129	0x3b087448	0.0020821262
130	0xbbc5267e	-0.0060165515
131	0xba9f7222	-0.0012164752
132	0x3a8ddbfd	0.0010823008
133	0xbb9b6d96	-0.0047432883
134	0xb97288b4	-0.00023129844
135	0xbbd8d5b9	-0.0066172746
136	0xbbea8832	-0.007157349
137	0x3aba3f2b	0.0014209499
138	0xbb6143a0	-0.0034372583
139	0x3ad11871	0.0015952719
140	0xbb747c70	-0.0037305616
141	0xbae78275	-0.0017662781
142	0xb9bbb5b0	-0.00035802787
143	0xba948fa0	-0.0011334307
144	0xbb32d6d8	-0.0027288701
145	0x390fff8d	0.00013732743
146	0xbb878b86	-0.0041365055
147	0x3c053015	0.008129139
148	0xbb8b1b7f	-0.004245221
149	0xbb9a03c2	-0.004700155
150	0x3a83269b	0.0010006012
151	0xbb571554	-0.003281911
152	0xbb7355ef	-0.0037130078
153	0x3a5a931a	0.000833796
154	0xba9fd800	-0.001219511
155	0xba338c2e	-0.00068491965
156	0x39ed97bd	0.00045317216
157	0x3a1d510b	0.0006001151
158	0x3a449dd4	0.0007500325
159	0xbb8abfdc	-0.004234297
160	0xba85e20c	-0.0010214462
161	0xba1ff58e	-0.0006101959
162	0xbb743a60	-0.003726624
163	0xbb9075c9	-0.0044085723
164	0xbb1ec3a2	-0.0024225493
165	0xba7bcc2d	-0.00096053147
166	0xba784f94	-0.0009472307
167	0xbb3aca8b	-0.0028502073
168	0xbbb8a352	-0.0056347037
169	0xbb21c0b1	-0.0024681503
170	0xb9ba61e5	-0.00035549622
171	0xbbbff5ee	-0.0058581745
172	0x3ab11076	0.0013508934
173	0xb907e859	-0.0001296116
174	0x3a8fd20c	0.0010972633
175	0xbb260604	-0.0025333175
176	0x3ab1277e	0.0013515798
177	0xbbbafa05	-0.005706074
178	0xb94eb9af	-0.00019714863
179	0xb9a5d33a	-0.00031628628
180	0xbbbfc87d	-0.0058527575
181	0xba4a4c3d	-0.0007717049
182	0x3b05d938	0.0020423662
183	0xbb9b29f3	-0.0047352253
184	0xbb5a924b	-0.0033351358
185	0xba66d281	-0.0008805171
186	0xbbcdf9ae	-0.0062858677
187	0xbb888302	-0.004166008
188	0xbc0bc2bf	-0.008530318
189	0xba7e961a	-0.0009711698
190	0xb9e770fc	-0.00044143933
191	0xbb9aafd1	-0.004720666
192	0xba7c0ea7	-0.00096152205
193	0xb951f9ff	-0.00020024924
194	0x3b89b27c	0.004202185
195	0xbaf4941f	-0.0018659866
196	0x3a579b30	0.0008224724
197	0x3a85311d	0.0010161732
198	0x3a9eda02	0.0012119415
199	0x3b6f3218	0.0036498364
200	0x3aff0254	0.001945565
201	0x3b70d10c	0.0036745695
202	0x3b511107	0.0031901018
203	0xb841e73b	-4.6230136e-05
204	0x3a278813	0.0006390821
205	0x3b1e8c0f	0.0024192368
206	0xba1d0b9f	-0.00059908064
207	0x3ac56968	0.0015061321
208	0x3b3be653	0.002867122
209	0x3ab23858	0.0013597114
210	0x3b512630	0.003191363
211	0xbc0741c9	-0.0082554305
212	0xba670473	-0.00088126137
213	0xbaeac277	-0.0017910738
214	0xbaf0e718	-0.0018379418
215	0x3acb9bde	0.0015534123
216	0x3b342198	0.0027485844
217	0x3a2e291e	0.00066437
218	0x39b1d31e	0.00033917365
219	0xbb89b190	-0.0042020753
220	0xba8848a2	-0.0010397623
221	0xbab9fafa	-0.0014189177
222	0x3b042de3	0.0020168952
223	0x3b7f0343	0.0038911856
224	0x3b24394b	0.0025058563
225	0x3b2d2ef8	0.00264257
226	0xba244242	-0.00062659767
227	0x3b7b8ac5	0.0038382274
228	0xb95352a9	-0.00020153321
229	0x3a874fbc	0.0010323445
230	0xbb189d5e	-0.0023287158
231	0x3b19852f	0.002342533
232	0x3b2833ef	0.002566572
233	0xbb1ae2d2	-0.002363373
234	0x3b1f8a75	0.0024344001
235	0x3bb90fbd	0.005647628
236	0xb9dc3afd	-0.0004200562
237	0x3a1818e8	0.0005802051
238	0xbb0767e7	-0.0020661296
239	0xbb2f0ae8	-0.0026709381
240	0x3aa2880a	0.0012400162
241	0x3b798e5d	0.003807924
242	0xbaeb009b	-0.0017929258
243	0x3b001488	0.0019543488
244	0x3b8f3a01	0.0043709283
245	0xb9809abb	-0.00024529346
246	0x3b1a2df5	0.0023525928
247	0x3b7a210b	0.0038166668
248	0x3b080376	0.0020754016
249	0xb9ef6687	-0.0004566202
250	0x3b8562cd	0.004070616
251	0x3b8344b7	0.004005994
252	0x3b972bee	0.004613391
253	0x3b697371	0.0035621787
254	0x3ab92cc9	0.0014127727
255	0x3b87a535	0.0041395673

model._logits._model.0.bias f4 [16]
0	0xbbdd1c6c	-0.006747773
1	0xbc433617	-0.0119147515
2	0xbc2bed22	-0.010493549
3	0x3b3e29ba	0.002901657
4	0x3c50efac	0.012752455
5	0x3c6319e9	0.013861158
6	0xbc06aeef	-0.008220418
7	0x3b782643	0.0037864603
8	0x3bdae51b	0.0066801435
9	0xbc1787bf	-0.009248673
10	0xbb690991	-0.003555868
11	0xbc126b36	-0.008936694
12	0x3bc2c15d	0.005943461
13	0x3b058596	0.0020373813
14	0xbaf0dc1c	-0.0018376145
15	0xbae774e3	-0.0017658736

model._hidden_layers.0._model.0.weight f4 [128, 78]
0	0xbc8066e3	-0.01567406
1	0x3a3b77ae	0.00071513175
2	0x3dd6569e	0.1046574
3	0xbbe4116e	-0.0069600856
4	0x3d9cb7bc	0.07652232
5	0xbd2668a9	-0.040627155
6	0xbd547e2a	-0.051878132
7	0x3d7b9334	0.06141968
8	0x3df9554e	0.12174474
9	0xbb656d23	-0.0035007678
10	0x3e4603c2	0.19337371
11	0xbe7dbd6f	-0.24779294
12	0x3ced632b	0.028977951
13	0x3dab7582	0.08372022
14	0xbda1315c	-0.07870743
15	0xbd3e9f00	-0.046538353
16	0x3dfcf772	0.12351884
17	0x3e1f6b5a	0.15568295
18	0xbdb81a82	-0.08989431
19	0x3d804b8b	0.06264409
20	0xbd44038b	-0.04785494
21	0xbd9ca9fb	-0.07649609
22	0xbcbe2fdc	-0.02321618
23	0xbe0f0a05	-0.13968666
24	0xbe0d1cc4	-0.13780504
25	0x3dc49830	0.0959934
26	0x3e2e8d56	0.17046103
27	0xbd94bb14	-0.07262245
28	0xbd5751da	-0.052568294
29	0xbe0835d4	-0.13301784
30	0x3cb67e9d	0.02227717
31	0x3e0b56f0	0.13607383
32	0xbea03d6f	-0.3129687
33	0x3e22cb03	0.15897755
34	0xbd0925a1	-0.03348315
35	0xbdfad17e	-0.12246989
36	0x3e2036ca	0.156459
37	0x3bf61e36	0.0075109256
38	0x3e6282a7	0.22120152
39	0xbd523b93	-0.051326346
40	0xbe1ab761	-0.15109016
41	0x3dcc6535	0.09980241
42	0x3b172619	0.002306348
43	0xbd2284a4	-0.039677277
44	0x3d16a2ef	0.03677648
45	0x3ccf3bd9	0.025297092
46	0xbe586512	-0.21132305
47	0x3cd2c71e	0.025729712
48	0xbe537d85	-0.2065335
49	0xbdee6255	-0.11639849
50	0xbd44b84e	-0.04802733
51	0xbc651c33	-0.013983774
52	0x3d2e7e42	0.042600878
53	0x3d0f410f	0.034974154
54	0xbdba5045	-0.090973414
55	0xbd99a8dd	-0.07502911
56	0x3e0293bf	0.12751673
57	0xbcda926a	-0.026681144
58	0x3df07c04	0.11742404
59	0x3ce0de6b	0.027449807
60	0xbdf2b709	-0.118513174
61	0xbe5d712e	-0.21625206
62	0xbda85c88	-0.08220774
63	0xbc0176f8	-0.0079018995
64	0x3d02fea1	0.031981114
65	0x3e359d70	0.17735839
66	0xbdd24a99	-0.102681346
67	0xbe34c9e7	-0.17655145
68	0xbe209e9c	-0.15685505
69	0xbe01de7b	-0.12682526
70	0x3b4f354d	0.0031617463
71	0xbd04b449	-0.032398496
72	0x3e232f82	0.15936092
73	0xbb2a5e53	-0.0025996163
74	0xbdf5c89f	-0.12001156
75	0x3e28dc4f	0.16490291
76	0x3db8140e	0.089882
77	0xbc8ffaca	-0.01757564
78	0x3ca06c72	0.01958296
79	0xbd29d84a	-0.041466035
80	0x3e280529	0.16408218
81	0x3cb61fc1	0.022231938
82	0xbe3ee70c	-0.18642825
83	0xbdd01ae5	-0.1016138
84	0x38969820	7.180893e-05
85	0x3d88166c	0.06644902
86	0x3e03717f	0.12836264
87	0xbbe0d8c5	-0.0068617784
88	0x3da288ff	0.07936286
89	0x3d4dc2d3	0.050234627
90	0xbc28d25b	-0.010304059
91	0xbd8ec354	-0.0697085
92	0x3d149587	0.036275413
93	0xbe5dbf3f	-0.21654986
94	0xbdd76a1a	-0.10518284
95	0x3da43bc7	0.08019214
96	0x3ca5feb3	0.020263052
97	0x3c590756	0.013246378
98	0xbda23513	-0.07920279
99	0x3de57aef	0.11205088
100	0x3dd86c05	0.10567478
101	0xbe2895c9	-0.16463389
102	0x3e988c0f	0.29794356
103	0x3df6f552	0.1205851
104	0xbe95da1b	-0.29267964
105	0xbd4ceffd	-0.05003356
106	0xbd12711d	-0.035752404
107	0xbd5fd46d	-0.054645944
108	0xbe109953	-0.14120989
109	0x3e15f17a	0.14642897
110	0x3db4d8d5	0.0883042
111	0xbce5d333	-0.02805481
112	0xbdf293ee	-0.118446216
113	0x3ddd8d52	0.1081797
114	0x3df62ece	0.12020646
115	0x3bdc7e72	0.0067289406
116	0xbbb9b053	-0.0056667714
117	0xbe3f7021	-0.18695118
118	0xbc0b0e42	-0.008487286
119	0x3e143b63	0.14475779
120	0x3cd859f3	0.026410079
121	0xbd3f387e	-0.046684735
122	0xbda22b9f	-0.07918476
123	0x3e6f5ce0	0.23375273
124	0xbe091100	-0.13385391
125	0x3bee0a74	0.0072644297
126	0x3bd04255	0.0063555636
127	0x3e4514a7	0.1924616
128	0x3de1c932	0.11024703
129	0x3c48d868	0.0122586265
130	0xbd353c85	-0.04424717
131	0x3e919f94	0.2844206
132	0x3db34372	0.087530985
133	0x3caa5139	0.020790683
134	0x3e035127	0.12823926
135	0xbc3fae2e	-0.0116992425
136	0x3d38b2af	0.04509228
137	0x3d2e17be	0.04250311
138	0xbd127ad3	-0.035761666
139	0xbc6b6480	-0.014367223
140	0xbdb25ba9	-0.08708889
141	0x3c838539	0.016054736
142	0x3d6bff59	0.057616565
143	0x3e20dfcc	0.15710372
144	0xbd2e316a	-0.042527594
145	0x3c6a251a	0.014291072
146	0x3c0a4b74	0.008440841
147	0x3dd08c26	0.10182981
148	0x3d9484f2	0.0725192
149	0xbc8535a8	-0.016260937
150	0xbdefa765	-0.1170185
151	0xbe5fea27	-0.21866666
152	0xbd87e41b	-0.066353045
153	0x3e17e1d2	0.14832237
154	0x3e0ca721	0.1373563
155	0xbe1fb545	-0.15596493
156	0xbe8d7359	-0.27627066
157	0xbba8deea	-0.0051535266
158	0xbce4bc5e	-0.027921852
159	0xbe09a31d	-0.13441129
160	0x3e4afbd5	0.19822629
161	0x3cd5d8dc	0.026104383
162	0xbd02b581	-0.031911377
163	0x3a6270f9	0.000863805
164	0xbcc348d6	-0.023838442
165	0x3aa36dbd	0.0012468618
166	0xbaccdced	-0.0015629806
167	0xbc55ae79	-0.013042086
168	0xbb532886	-0.0032220199
169	0xbbfa6dea	-0.0076424973
170	0x3d48d4fc	0.049031243
171	0x3e1afa7d	0.15134616
172	0xbe0328b7	-0.128085
173	0x3e37e2f5	0.17957671
174	0x3da814eb	0.08207115
175	0xbe41b2d3	-0.18915872
176	0xb922d1b7	-0.00015527649
177	0x3e921e0c	0.2853855
178	0x3d12f457	0.035877552
179	0xbd0fbc38	-0.03509161
180	0x3abb9951	0.001431266
181	0x3dc500d1	0.09619296
182	0xbcd17f61	-0.025573434
183	0x3c09ac71	0.00840293
184	0x3d27e1e3	0.040986907
185	0xbe5edb9f	-0.21763466
186	0x3cbf53df	0.023355423
187	0x3d22d844	0.03975703
188	0xbdef1121	-0.11673189
189	0x3cb101b2	0.021607254
190	0xbe3b1d18	-0.18272817
191	0x3d11e9cf	0.035623368
192	0x3e0fa8f7	0.14029299
193	0xbdee2697	-0.11628454
194	0x3d3c029c	0.045900926
195	0xbe4ba084	-0.1988545
196	0xbd7d4d79	-0.06184146
197	0x3ac17892	0.0014760664
198	0x3d8ab307	0.06772428
199	0x3e0da337	0.13831793
200	0xbebeea73	-0.37288246
201	0xbe2d0bb2	-0.16898993
202	0xbd64b051	-0.05583221
203	0x3c6b1df7	0.014350406
204	0x3d0bf5ff	0.034170147
205	0xbc7228ef	-0.014780267
206	0x3d141824	0.036155835
207	0x3bf51057	0.0074787545
208	0x3e17d888	0.14828694
209	0x3d44102c	0.047866985
210	0x3e3cc29d	0.18433614
211	0xbd4cc119	-0.04998884
212	0xbd0bbed4	-0.034117535
213	0xbdd056af	-0.101727836
214	0x3d8e32e1	0.06943298
215	0x3dd1a688	0.102368414
216	0x3b951b13	0.0045503466
217	0x3e1cffe7	0.15331994
218	0xbd523bfa	-0.05132673
219	0x3d1d1aa7	0.038355496
220	0x3dfeb5cd	0.124370195
221	0xbd922606	-0.07136159
222	0x3e294df9	0.1653365
223	0xbdc61fbb	-0.09674021
224	0xbc4780be	-0.012176691
225	0x3cc16c22	0.023611132
226	0xbd8e81df	-0.06958365
227	0x3d085ba9	0.03329054
228	0xbe70ab3b	-0.23502819
229	0xbe36c295	-0.17847665
230	0x3cf2a474	0.029619433
231	0xbc657ca5	-0.014006768
232	0xbdabe87c	-0.08393952
233	0xbd563009	-0.052291904
234	0x3e27bbc8	0.16380227
235	0x3e0a7ce1	0.135242
236	0xbdb9113d	-0.09036491
237	0x3d88bb6b	0.06676372
238	0x3e62581a	0.2210392
239	0xbe06fe36	-0.13182911
240	0xbdab4c79	-0.083641954
241	0x3cd3a93a	0.02583753
242	0x3d0a1df3	0.033719968
243	0xbd1bf6ca	-0.038077153
244	0xbde5a785	-0.112135924
245	0x3c2e94ed	0.010655624
246	0x3c8a41b1	0.016877027
247	0x3e156197	0.14588009
248	0xbb5a9bd0	-0.0033357032
249	0x3c40dcf7	0.011771432
250	0x3d4d43e6	0.05011358
251	0x3da8347d	0.08213136
252	0x3c9d8ed8	0.019233152
253	0x3d4989f9	0.049203847
254	0xbe8d5e2d	-0.27610913
255	0x3d650942	0.055917032

model._hidden_layers.0._model.0.bias f4 [128]
0	0x00000000	0.0
1	0x3b824b2c	0.0039762463
2	0x399c0940	0.0002976153
3	0x00000000	0.0
4	0x00000000	0.0
5	0xbbb09239	-0.005388525
6	0xbb1073ef	-0.0022041758
7	0x00000000	0.0
8	0xbb141926	-0.0022597997
9	0x00000000	0.0
10	0xbb600e63	-0.0034188263
11	0xbad4543e	-0.0016199423
12	0xbb883229	-0.00415637
13	0xbaf29f33	-0.001851058
14	0x00000000	0.0
15	0xbc168254	-0.009186346
16	0xbba6831c	-0.0050815474
17	0x00000000	0.0
18	0xbc043314	-0.008068819
19	0x00000000	0.0
20	0xb7ea29d2	-2.7914448e-05
21	0xbb61409a	-0.003437078
22	0x00000000	0.0
23	0x00000000	0.0
24	0xbad267aa	-0.0016052623
25	0x00000000	0.0
26	0xbb2aafc3	-0.0026044704
27	0x00000000	0.0
28	0x00000000	0.0
29	0x00000000	0.0
30	0xbc048c09	-0.008090028
31	0xbbaf2e25	-0.005346077
32	0xbbd61d90	-0.006534286
33	0xbbc12749	-0.0058945757
34	0xbb83ae06	-0.004018548
35	0x00000000	0.0
36	0x00000000	0.0
37	0x00000000	0.0
38	0x00000000	0.0
39	0xbb87d573	-0.004145318
40	0x00000000	0.0
41	0x00000000	0.0
42	0x00000000	0.0
43	0x00000000	0.0
44	0x00000000	0.0
45	0x00000000	0.0
46	0x00000000	0.0
47	0x00000000	0.0
48	0xbb9ba6e3	-0.004750119
49	0xbbf6dd06	-0.0075336723
50	0xbc4146f4	-0.011796702
51	0x00000000	0.0
52	0x3b707223	0.0036689125
53	0x00000000	0.0
54	0x00000000	0.0
55	0xbc2bf3ab	-0.010495107
56	0xbbee3f9e	-0.0072707674
57	0xba8044f6	-0.0009786177
58	0x00000000	0.0
59	0x00000000	0.0
60	0x00000000	0.0
61	0xbb7d08e1	-0.0038610029
62	0xbba82e4f	-0.0051324735
63	0xbaec0ea7	-0.0018009738
64	0xbb9e8dab	-0.0048386655
65	0x00000000	0.0
66	0x00000000	0.0
67	0xbbe7f83e	-0.0070791533
68	0x00000000	0.0
69	0x00000000	0.0
70	0x00000000	0.0
71	0xbb7c0839	-0.003845705
72	0x00000000	0.0
73	0xbb5e6b9f	-0.003393866
74	0x00000000	0.0
75	0xbbbafe2f	-0.0057065706
76	0x00000000	0.0
77	0xbbb3a08b	-0.0054817847
78	0x00000000	0.0
79	0x3a7a04ee	0.0009537478
80	0x00000000	0.0
81	0x00000000	0.0
82	0x00000000	0.0
83	0xbb92f144	-0.0044843275
84	0xbbd35870	-0.0064497516
85	0x00000000	0.0
86	0xbb0fd09a	-0.0021944405
87	0xbbab2c0e	-0.0052237576
88	0x00000000	0.0
89	0x00000000	0.0
90	0x00000000	0.0
91	0x00000000	0.0
92	0xbbf5a329	-0.007496257
93	0x00000000	0.0
94	0x00000000	0.0
95	0xbc0ca763	-0.00858483
96	0xbba741af	-0.0051042656
97	0x00000000	0.0
98	0x00000000	0.0
99	0x00000000	0.0
100	0x00000000	0.0
101	0x00000000	0.0
102	0xbb7c7b03	-0.003852547
103	0xba1513e8	-0.0005686865
104	0xbb917bd9	-0.0044398126
105	0x00000000	0.0
106	0x00000000	0.0
107	0x00000000	0.0
108	0xbb6c086f	-0.003601577
109	0x00000000	0.0
110	0x00000000	0.0
111	0xbaf7ccc9	-0.0018905635
112	0xbb48856e	-0.0030597108
113	0x381bb0e8	3.7119637e-05
114	0xbb7f1e1d	-0.003892786
115	0xbc0b1234	-0.008488227
116	0xbaada2fa	-0.0013247423
117	0xbb4c1053	-0.003113766
118	0xbb6ca24f	-0.0036107486
119	0xbbd850ed	-0.006601444
120	0x00000000	0.0
121	0x00000000	0.0
122	0x00000000	0.0
123	0x00000000	0.0
124	0x00000000	0.0
125	0x00000000	0.0
126	0xbc116171	-0.0088733295
127	0xbb64e2b8	-0.0034925174

model._hidden_layers.1._model.0.weight f4 [128, 128]
0	0xbda3c50b	-0.07996567
1	0x3dece723	0.11567523
2	0x3c30e0e7	0.010795808
3	0x3d4a0f70	0.04933113
4	0xbe571b7e	-0.21006581
5	0xbd9c846f	-0.07642447
6	0x3de2a5b4	0.110667616
7	0xbcd2a7c6	-0.025714766
8	0x3ca9cbba	0.020727027
9	0x3dbc6e16	0.09200685
10	0x3d3c757a	0.046010472
11	0xbc95d717	-0.01829104
12	0xbdd15d55	-0.1022288
13	0xb6701d92	-3.578e-06
14	0x3cb919ea	0.022595365
15	0xbd263a7c	-0.04058312
16	0x3d630d1f	0.055432435
17	0xbd676a08	-0.056497604
18	0xbdbc6bde	-0.092002615
19	0x3e07cae5	0.13260992
20	0x3d6ef97d	0.0583434
21	0xbd94df21	-0.07269121
22	0x3d62605f	0.055267688
23	0xbc773072	-0.015087234
24	0xbd321d06	-0.04348471
25	0xbd0ff41e	-0.035144918
26	0xbd040a77	-0.032236543
27	0x3d6b73b7	0.0574834
28	0xbd872690	-0.06599152
29	0xbe1448ee	-0.14480945
30	0x3db29367	0.08719521
31	0xbe1238ac	-0.14279431
32	0xbdc1d455	-0.09464327
33	0xbe08ab8c	-0.1334669
34	0xbdf013d3	-0.11722531
35	0x3d3a5959	0.045495365
36	0xbe1c78dd	-0.1528048
37	0x3cbcfeb9	0.02307068
38	0x3d155070	0.036453664
39	0xbd3d936b	-0.046283167
40	0x3d59ce09	0.053175006
41	0x3d5a026f	0.053224977
42	0x3e340964	0.17581707
43	0xbd8be44b	-0.06830653
44	0xbccc2eda	-0.024924684
45	0xbe46470f	-0.19363044
46	0xbdec37c3	-0.11534073
47	0xbdd98c85	-0.10622505
48	0xbc47e1bb	-0.012199814
49	0xbd8554c4	-0.065103084
50	0xbcd0bbd4	-0.025480188
51	0x3d64a30d	0.05581956
52	0x3df2a5c8	0.118480265
53	0xbdb8eaec	-0.09029183
54	0x3d28e21e	0.041231267
55	0xbdfbe24d	-0.12299023
56	0x3d218914	0.03943737
57	0x3cfe20d2	0.03102151
58	0x3daf7a12	0.08568205
59	0xbd9804f1	-0.074228175
60	0xbd6ea9c4	-0.05826737
61	0x3dc17166	0.09445457
62	0x3dd63d21	0.10460878
63	0xbcec9842	-0.028881196
64	0xbe1cd948	-0.15317261
65	0x3ce58cda	0.028021265
66	0x3d932c9c	0.07186243
67	0x3d0f9c12	0.03506095
68	0xbd1c3ded	-0.038144995
69	0xbb9c3c0b	-0.0047679
70	0xbe547192	-0.20746449
71	0xbcb1c848	-0.021701947
72	0x3dc178ee	0.09446894
73	0x3c859638	0.016306981
74	0xbe04b8c1	-0.12961103
75	0x3da6579c	0.08122179
76	0xbc15ff30	-0.00915508
77	0x3e0c897d	0.13724323
78	0x3bcd8657	0.006272118
79	0x3c6376a4	0.013883267
80	0xbe2f8180	-0.17139244
81	0x3def474f	0.11683523
82	0x3e04becd	0.1296341
83	0xbd493ceb	-0.04913036
84	0x3d7193fd	0.058979023
85	0xbdb40b2b	-0.087911926
86	0x3dfc8761	0.12330509
87	0xbe1f2adf	-0.15543698
88	0xbe65cc6f	-0.22441266
89	0x3d9f6e0c	0.07784662
90	0x3e1f205a	0.15539685
91	0x3dd58603	0.10425951
92	0x3e0b4e9c	0.13604206
93	0xbe0023aa	-0.12513605
94	0x3d9ffe07	0.07812124
95	0xbc46dd71	-0.012137757
96	0xbc96acaf	-0.018392889
97	0xbd8ce3d1	-0.0687939
98	0xbdb47c19	-0.08812732
99	0x3d85f869	0.06541521
100	0x3c0d34a0	0.008618504
101	0x3d17feb1	0.037108127
102	0x3d4b03f7	0.049564328
103	0x3c032c63	0.008006188
104	0x3ce91280	0.028451204
105	0x3c1e47e7	0.009660698
106	0xbca9d5ed	-0.02073189
107	0x3d40599b	0.046960454
108	0x3e1bf108	0.15228665
109	0xbd19f543	-0.037587415
110	0xbdf0df99	-0.11761398
111	0xbda9390c	-0.08262834
112	0xbe0cdbe9	-0.13755764
113	0xbdde3d05	-0.10851482
114	0x3c621abe	0.013800321
115	0xbe018295	-0.1264747
116	0xbd12d436	-0.03584691
117	0x3d36e36d	0.044650484
118	0x3c005a07	0.007833964
119	0x3d403a1b	0.046930414
120	0xbda6ee5f	-0.081509344
121	0xbd738a07	-0.059457805
122	0x3d26bc01	0.04070664
123	0x3db4b23c	0.08823058
124	0xbc759573	-0.014989245
125	0x3d451530	0.04811591
126	0xbdb8d467	-0.090248875
127	0x3cc8d5ca	0.024516005
128	0x3ce2c57d	0.02768206
129	0xbcb37aff	-0.021909235
130	0xbcbf24a0	-0.023332894
131	0xbd2053d4	-0.039142445
132	0xbe6dad03	-0.2321053
133	0x3d863508	0.06553084
134	0x3d7bbada	0.061457492
135	0xbe00c6db	-0.12575857
136	0x3d8086aa	0.06275685
137	0x3d59e0cd	0.053192902
138	0xbd1617d0	-0.036643803
139	0x3e058d3c	0.13042158
140	0x3de34ca6	0.11098604
141	0x3da99f86	0.0828238
142	0xbd468b46	-0.048472665
143	0xbe51c208	-0.20484173
144	0xbd886242	-0.06659366
145	0x3d448380	0.04797697
146	0xbe06af8c	-0.13152903
147	0x3c5e56bd	0.013570485
148	0x3e1d92be	0.15388009
149	0xbe504186	-0.20337495
150	0x3dbd47b9	0.09242196
151	0xbd3eb983	-0.046563637
152	0x3e171779	0.14755048
153	0xbcb2b611	-0.021815332
154	0x3dca9f93	0.098937176
155	0xbd869f15	-0.06573311
156	0xbdd20289	-0.1025439
157	0xbdcd733c	-0.10031745
158	0xbd8ed223	-0.06973674
159	0xbe4578c7	-0.19284354
160	0x3dd31b6f	0.10307967
161	0xbdb82158	-0.08990735
162	0x3ce1c92e	0.02756175
163	0xbda7b6e0	-0.081891775
164	0xbda8f0a0	-0.082490206
165	0x3ce2f918	0.027706668
166	0x3daaa870	0.08332908
167	0x3d90a623	0.07062938
168	0x3cd0dc8f	0.025495796
169	0x3cbd5bc2	0.023115043
170	0xbd84cabe	-0.064839825
171	0x3cf9c879	0.0304911
172	0xbd95948a	-0.07303722
173	0xbe036391	-0.1283095
174	0xbd4289e7	-0.047494795
175	0xbd4f0fa3	-0.05055202
176	0x3a1a4e18	0.00058862707
177	0xbc140714	-0.009034891
178	0xbd93d45c	-0.07218239
179	0xbe0e1a47	-0.13877212
180	0xbd09f032	-0.033676334
181	0x3d29cbb3	0.04145403
182	0xbda6c27f	-0.08142566
183	0xbdcd154c	-0.10013828
184	0xbdac3990	-0.08409417
185	0x3ad3317e	0.0016112772
186	0xbe0b5c1e	-0.13609359
187	0x3e862129	0.26197174
188	0x3d431289	0.0476251
189	0x3c83bebc	0.01608216
190	0xbcc11a64	-0.023572154
191	0xbd0771e0	-0.033067584
192	0x3c3703dc	0.011170354
193	0xbdf0f5c2	-0.117656246
194	0x3d2dcb6b	0.042430323
195	0x3d8792e3	0.06619813
196	0x3d7e36db	0.062064033
197	0x3d3f1f7d	0.04666089
198	0xbcb69b93	-0.02229098
199	0xbd85a2b3	-0.06525173
200	0xbd08ed74	-0.033429578
201	0x3d7dba7f	0.061945435
202	0x3e3c341d	0.18379255
203	0xbca1f40a	-0.019769687
204	0x3c891de3	0.016737884
205	0x3d1c526e	0.03816455
206	0x3ccf5cf3	0.025312876
207	0x3d2b4ae9	0.041819487
208	0x3d8a81a7	0.067630105
209	0xbe06bfb1	-0.13159062
210	0x3ca30149	0.019898074
211	0xbcd40514	-0.025881328
212	0xbd885a7b	-0.06657883
213	0x3db2387c	0.0870218
214	0x3e006d42	0.12541679
215	0xbc437c2a	-0.0119314585
216	0x3d9707ac	0.0737451
217	0xbdf78196	-0.120852634
218	0xbdfe4897	-0.12416189
219	0x3d4fe89f	0.050758954
220	0xbdf981ba	-0.121829465
221	0xbccf8ea5	-0.025336573
222	0x3d356c3c	0.044292673
223	0x3c2cad95	0.010539432
224	0x3ab97744	0.0014149924
225	0x3d8685ff	0.065685265
226	0x3d3ce0b0	0.046112716
227	0xbd791e13	-0.060819697
228	0x3c6433f6	0.013928404
229	0xbd2f783a	-0.042839266
230	0xbd37fb5c	-0.04491745
231	0x3c21a0f2	0.0098650325
232	0x3da430c1	0.080171116
233	0x3d87abf1	0.06624592
234	0xbc163e16	-0.009170076
235	0xbdd61aa9	-0.10454304
236	0x3c90c1b0	0.017670482
237	0xbe17ed11	-0.14836527
238	0xbdd000f0	-0.10156429
239	0xbe686da8	-0.2269808
240	0xbce0839f	-0.027406512
241	0x3d95d12b	0.07315286
242	0xbd4de197	-0.050263967
243	0xbcda4a3b	-0.026646724
244	0xbbaec7e8	-0.0053338893
245	0xbd3277d5	-0.043571312
246	0x3d941cfd	0.072320916
247	0x3e406476	0.18788323
248	0xbe1a2670	-0.15053725
249	0x3d70c9e5	0.05878629
250	0xbc5bc691	-0.013414041
251	0xbd6f686b	-0.05844919
252	0xbcfd8118	-0.030945346
253	0x3d6418b7	0.055687632
254	0x3d1f50cb	0.03889541
255	0xbe18f757	-0.14938103

model._hidden_layers.1._model.0.bias f4 [128]
0	0x00000000	0.0
1	0x00000000	0.0
2	0xbb513023	-0.003191956
3	0x00000000	0.0
4	0x00000000	0.0
5	0x3b5a8b63	0.003334724
6	0x00000000	0.0
7	0xbbd253bf	-0.0064186747
8	0x00000000	0.0
9	0x00000000	0.0
10	0x00000000	0.0
11	0xbb08a5c6	-0.0020850762
12	0xbb119629	-0.0022214747
13	0xbb38371b	-0.0028109017
14	0x00000000	0.0
15	0x00000000	0.0
16	0x00000000	0.0
17	0x00000000	0.0
18	0x00000000	0.0
19	0x00000000	0.0
20	0xbba16484	-0.0049253125
21	0xbb100381	-0.0021974745
22	0x00000000	0.0
23	0x39ed802b	0.00045299655
24	0x00000000	0.0
25	0x00000000	0.0
26	0xbb5f295a	-0.0034051747
27	0xbb368b6e	-0.0027854103
28	0x00000000	0.0
29	0xbb83dcd9	-0.00402413
30	0xbb6008b9	-0.0034184887
31	0x00000000	0.0
32	0xbb52629e	-0.0032102237
33	0x3c17a4fb	0.009255643
34	0xbb5dd6d7	-0.0033849978
35	0x00000000	0.0
36	0xbbc72541	-0.006077439
37	0x00000000	0.0
38	0xba04f724	-0.0005072227
39	0x00000000	0.0
40	0xbc232466	-0.0099574085
41	0xbba15446	-0.0049233763
42	0xbb261b06	-0.0025345697
43	0xba940816	-0.0011293914
44	0x00000000	0.0
45	0xbaba8be7	-0.0014232368
46	0x00000000	0.0
47	0x00000000	0.0
48	0xbb4bebb3	-0.003111583
49	0x00000000	0.0
50	0x3956b202	0.00020474943
51	0x00000000	0.0
52	0x00000000	0.0
53	0xbc301a1b	-0.0107484115
54	0xb8293b00	-4.0347688e-05
55	0xbb1df64d	-0.0024103106
56	0x00000000	0.0
57	0x00000000	0.0
58	0xbbcd51b0	-0.0062658414
59	0x00000000	0.0
60	0x00000000	0.0
61	0x00000000	0.0
62	0xbba53f38	-0.0050429367
63	0xbb80ca11	-0.003930338
64	0xbbb61321	-0.0055564796
65	0x00000000	0.0
66	0xba059891	-0.00050962815
67	0xbb31bd2a	-0.0027120807
68	0xbbda77e4	-0.006667124
69	0x00000000	0.0
70	0x00000000	0.0
71	0x00000000	0.0
72	0x00000000	0.0
73	0x3ab1d698	0.0013567982
74	0x00000000	0.0
75	0xbbe67cb4	-0.0070339087
76	0x39e69618	0.00043980847
77	0xbaa1bdc7	-0.0012339883
78	0x00000000	0.0
79	0x00000000	0.0
80	0x00000000	0.0
81	0xbba9fb37	-0.005187418
82	0xbb935936	-0.0044967188
83	0x00000000	0.0
84	0x39ca505e	0.0003858832
85	0xbb84eb66	-0.004056382
86	0xbac65b32	-0.001513338
87	0x00000000	0.0
88	0x00000000	0.0
89	0x00000000	0.0
90	0xbb652279	-0.0034963174
91	0xb9ccc62c	-0.00039057562
92	0x00000000	0.0
93	0x00000000	0.0
94	0x00000000	0.0
95	0x00000000	0.0
96	0x00000000	0.0
97	0x3bdbedf7	0.006711717
98	0xbb84d637	-0.0040538567
99	0x00000000	0.0
100	0x00000000	0.0
101	0xbb059bb5	-0.0020386998
102	0xbaf07154	-0.0018344321
103	0x00000000	0.0
104	0xbaa53647	-0.0012604677
105	0x3a897450	0.0010486934
106	0xbc1b4123	-0.009475979
107	0x00000000	0.0
108	0x00000000	0.0
109	0x3a9926a9	0.0011684495
110	0xbb0377c2	-0.0020060395
111	0x38cae513	9.674779e-05
112	0xbb92173e	-0.004458337
113	0xba732ff8	-0.0009276862
114	0xbb9008ff	-0.0043956037
115	0xbb9efda3	-0.004852013
116	0x3b088c24	0.0020835483
117	0xbbc11125	-0.0058919364
118	0xbb499d2d	-0.003076385
119	0xbb27d02f	-0.0025606265
120	0xbb100020	-0.002197273
121	0xbbc8aa11	-0.006123789
122	0x00000000	0.0
123	0xbbd36dc5	-0.0064522945
124	0x00000000	0.0
125	0x00000000	0.0
126	0xbb29d832	-0.0025916216
127	0x00000000	0.0

model._hidden_layers.2._model.0.weight f4 [64, 128]
0	0x3d564e07	0.052320506
1	0x3d511551	0.05104572
2	0xbd6b55e1	-0.057454947
3	0x3cbfccbc	0.023413055
4	0x3ce916be	0.028453227
5	0xbdc2c084	-0.09509376
6	0x3d711461	0.058857325
7	0x3dd49c15	0.10381333
8	0xbdd9a270	-0.106266856
9	0xbc8e1c8a	-0.017347593
10	0xbd3ebe0d	-0.046567965
11	0x3c18b3a0	0.00932017
12	0xbe36e3b2	-0.17860296
13	0x3d5276f9	0.051382992
14	0x3c670032	0.014099168
15	0xbd8d35de	-0.0689504
16	0xbd500654	-0.050787285
17	0x3cacba7e	0.02108502
18	0xbc4e917a	-0.0126079265
19	0x3d72a825	0.059242386
20	0xbd9ec1b5	-0.077517904
21	0xbcc65460	-0.024210155
22	0x3d2b706a	0.041855253
23	0x3db7ba52	0.08971085
24	0x3df830cb	0.121186815
25	0xbe03f8d9	-0.12887897
26	0x3d305aad	0.043055225
27	0x3d237541	0.039906744
28	0xbd1d0935	-0.03833886
29	0x3cc18eec	0.02362772
30	0xbdbbda5b	-0.091725074
31	0x3d4a430b	0.049380343
32	0xbd084525	-0.033269066
33	0x3dcff58d	0.10154257
34	0xbe3eb97b	-0.18625443
35	0x3c859aaa	0.016309101
36	0x3d891841	0.06694079
37	0x3d2afec5	0.041746873
38	0x3e1f9de5	0.15587576
39	0xbd18cfab	-0.037307423
40	0x3d3760a7	0.04476991
41	0xbda68a68	-0.08131868
42	0xbd4a1e26	-0.049345158
43	0xbd484ecb	-0.048903268
44	0xbc2cb97f	-0.010542273
45	0x3e3c0566	0.18361434
46	0x3e50ada5	0.2037874
47	0x3d8d9127	0.06912451
48	0xbd5b26f6	-0.053503953
49	0xbd7bb41c	-0.061451063
50	0xbe5d8438	-0.21632469
51	0xbd0a11f1	-0.033708517
52	0xbdb66c13	-0.08907332
53	0xbe0395ce	-0.12850115
54	0x3d607cf1	0.054806653
55	0x3d49de6d	0.049284387
56	0xbcf94877	-0.030430062
57	0xbdbdccfb	-0.092676125
58	0xbdd28d6b	-0.102808796
59	0xbd1a20c8	-0.03762892
60	0x3dfbd715	0.12296883
61	0xbdcfc552	-0.10145058
62	0xbc418720	-0.0118120015
63	0x3da9d2ef	0.082921855
64	0x3cfdd65b	0.030986002
65	0xbdc4c828	-0.09608489
66	0x3dda1013	0.10647597
67	0x3c98953d	0.01862585
68	0xbda6026d	-0.081059314
69	0x3de6b6f0	0.11265361
70	0xbb87bc67	-0.0041423324
71	0xbe0a6749	-0.13515963
72	0x3dbf360f	0.09336483
73	0xbd8913c0	-0.0669322
74	0xbe0f5a19	-0.13999213
75	0xbd877171	-0.06613434
76	0xbc9014c6	-0.01758803
77	0x3df2bb1d	0.11852095
78	0xbc81666a	-0.015795905
79	0xbbffea76	-0.0078099323
80	0xb99b7b46	-0.0002965575
81	0xbd768ad5	-0.060190994
82	0x3d03602e	0.032074146
83	0x3e2048f7	0.15652834
84	0x3cc3c95e	0.02389973
85	0x3ceb13c1	0.028695943
86	0xbe5d53bc	-0.21613973
87	0x3d970e10	0.07375729
88	0xbd1d577c	-0.03841351
89	0x3dbea594	0.09308925
90	0xbc3db310	-0.011578336
91	0xbd455114	-0.048173025
92	0x3d96957b	0.0735273
93	0xbcabfff4	-0.020996071
94	0xbde2a275	-0.110661425
95	0x3e5e72b6	0.21723446
96	0xbe3550e4	-0.17706639
97	0x3da786ba	0.08179994
98	0xbc7c274b	-0.015390228
99	0xbe0d7905	-0.13815697
100	0x3df4c75e	0.11952089
101	0xbcaa1664	-0.02076263
102	0xbcad3b28	-0.021146372
103	0xbd215264	-0.039385214
104	0xbe2a1b3d	-0.16611953
105	0x3d2e25d2	0.042516537
106	0x3d757dcb	0.05993442
107	0x3e40fa70	0.18845534
108	0xbd3e3b9a	-0.04644356
109	0x3c27c99c	0.0102409385
110	0xbc6e3563	-0.014539096
111	0x3dfa8e5b	0.122341834
112	0xbdaefbd0	-0.08544123
113	0xbc103298	-0.008801125
114	0x3cf56b48	0.029958382
115	0x3db36bdb	0.08760806
116	0x3d8fb49c	0.070168704
117	0x3d82d07f	0.06387424
118	0x3ce1dd20	0.02757126
119	0x3cfa88f1	0.030582877
120	0x3dfd68c5	0.12373499
121	0xbe4655df	-0.19368695
122	0x3de2db80	0.110770226
123	0xbc2cd27a	-0.010548228
124	0xbdaef273	-0.08542337
125	0xbc9c2b1e	-0.019063529
126	0xbcd6343d	-0.026147956
127	0xbc976852	-0.018482361
128	0x3d94d692	0.072674885
129	0x3c90f51a	0.017694999
130	0xbd59ca64	-0.05317153
131	0xbddec2ac	-0.108769745
132	0x3dbe2760	0.09284854
133	0xbbf29593	-0.0074030845
134	0xbd829eb1	-0.06377924
135	0xbd5b1513	-0.053486895
136	0xbcfc958f	-0.030833034
137	0x3ce9aecf	0.028525738
138	0xbc11f514	-0.008908529
139	0xbd55f363	-0.052234065
140	0x3d8b7882	0.068100944
141	0xbd309cbb	-0.04311822
142	0xbe09cd65	-0.13457258
143	0xbde86153	-0.11346688
144	0x3e2bda54	0.16782504
145	0x3e328fbc	0.17437643
146	0xbd3fe248	-0.046846658
147	0x3b1105f0	0.0022128783
148	0xbd18ef83	-0.03733779
149	0xbe1e111d	-0.15436216
150	0x3e575d60	0.21031713
151	0xbe5770ac	-0.21039075
152	0x3d44739e	0.047961824
153	0xbd30d9a1	-0.043176297
154	0x3ce792e2	0.028268281
155	0x3d481103	0.04884435
156	0x3c83c10c	0.016083263
157	0x3dd3d126	0.10342626
158	0x3cad086a	0.021122176
159	0x3e20aeb2	0.15691641
160	0x3b147cbc	0.0022657355
161	0xbdb85cf3	-0.09002104
162	0xbd674940	-0.05646634
163	0x3d4cf05d	0.050033916
164	0x3d803657	0.062603645
165	0x3d5c1f09	0.053740535
166	0x3b237f7a	0.0024947808
167	0x3d9b19d3	0.07573285
168	0xbd518a7e	-0.051157467
169	0xbdc96be7	-0.09835034
170	0x3d4965f5	0.0491695
171	0x3dba4e84	0.09097007
172	0xbdaf6f90	-0.08566201
173	0x3e248f72	0.16070345
174	0x3c4b818e	0.012421025
175	0x3d59b32c	0.053149387
176	0xbdd28b63	-0.10280492
177	0xbd7fd2f8	-0.062457055
178	0xbd6ace46	-0.057325624
179	0xbcd2f026	-0.025749277
180	0x3d3f2ba8	0.046672493
181	0xbd9508cd	-0.07277069
182	0xbe1578f4	-0.14596921
183	0x3cce1196	0.02515487
184	0xbe178537	-0.14796911
185	0xbd04493c	-0.032296404
186	0xbd05210b	-0.032502215
187	0xbda4902c	-0.08035311
188	0xbd9d275d	-0.076735236
189	0xbd6f7c56	-0.058468185
190	0x3d952904	0.07283214
191	0x3bbb9a8b	0.00572521
192	0xbc85e033	-0.016342258
193	0x3db716ec	0.08939919
194	0x3b9a9187	0.0047170552
195	0xbd817854	-0.06321779
196	0xbd5ec630	-0.054388225
197	0xbd899930	-0.06718671
198	0x3d432551	0.04764301
199	0xbddfafe1	-0.10922218
200	0xbda19cef	-0.07891261
201	0xbd379cf0	-0.0448274
202	0xbd47ce9d	-0.048781026
203	0xbe7cedd9	-0.24700107
204	0x3ded4553	0.11585488
205	0x3d24543a	0.040119387
206	0xbcba4629	-0.022738533
207	0xbe164ad7	-0.14676987
208	0x3de24de5	0.110500135
209	0xbce88755	-0.028384844
210	0xbd6673d4	-0.056262806
211	0x3cc8913b	0.024483314
212	0x3cd526f8	0.026019558
213	0xbd44474c	-0.047919556
214	0xbcdc79e8	-0.026913598
215	0xbe06172d	-0.13094778
216	0x3c175a07	0.009237773
217	0x3cd6d0cb	0.026222607
218	0xbe191752	-0.14950302
219	0xbc23766a	-0.009976963
220	0xbcb39910	-0.021923572
221	0xbe2a14bf	-0.16609477
222	0x3d95e224	0.073185235
223	0x3d9efc54	0.077629715
224	0x3d119acb	0.035548013
225	0x3df6e979	0.1205625
226	0xbe1c717b	-0.15277664
227	0x3da7d83b	0.081955396
228	0x3db41636	0.08793299
229	0xbe00c11a	-0.12573662
230	0x3d6f9836	0.05849477
231	0xbd71889f	-0.058968183
232	0xbd4ca73e	-0.049964182
233	0xbd03fa2a	-0.032220997
234	0x3dda4470	0.10657585
235	0x3dabd11d	0.083894946
236	0x3cfd9001	0.030952455
237	0xbaf62029	-0.0018777895
238	0xbc0485ea	-0.008088568
239	0xbe6c0e7a	-0.23052397
240	0x3e21f2b5	0.15815242
241	0xbd81ea0e	-0.063434705
242	0x3d4df312	0.050280638
243	0xbe1372e7	-0.143993
244	0xbc80d51f	-0.015726624
245	0x3d1a0f48	0.03761223
246	0x3d9307f5	0.07179252
247	0xbe31226c	-0.17298287
248	0x3cd0b614	0.025477447
249	0xbd9859d7	-0.074390106
250	0x3c78a9da	0.0151772145
251	0x3cca7f37	0.024718864
252	0x3dc197d0	0.09452784
253	0xbdb28fd3	-0.087188385
254	0x3d930012	0.07177748
255	0x3de6dc71	0.112725146

model._hidden_layers.2._model.0.bias f4 [64]
0	0x00000000	0.0
1	0x00000000	0.0
2	0xba0d9f6f	-0.00054024806
3	0xbc2e6d09	-0.010646113
4	0x00000000	0.0
5	0xbb6e9b76	-0.003640858
6	0x00000000	0.0
7	0xbb597759	-0.003318271
8	0xbb35125d	-0.0027629354
9	0xbb4fd9ce	-0.0031715515
10	0xbb66a9bb	-0.0035196382
11	0x00000000	0.0
12	0xbb9d4dc9	-0.0048005325
13	0xbb1bfbcb	-0.0023801203
14	0x00000000	0.0
15	0xbb2b1587	-0.002610536
16	0xbb48eb5c	-0.0030657863
17	0x00000000	0.0
18	0xbb893a30	-0.0041878447
19	0xbbe6c07a	-0.007041988
20	0xb7d95c78	-2.5911475e-05
21	0xbb69d9ab	-0.0035682719
22	0x00000000	0.0
23	0xbb8cc458	-0.004295867
24	0xbb5d113f	-0.0033732203
25	0x00000000	0.0
26	0x00000000	0.0
27	0xbbcac0f7	-0.006187554
28	0x00000000	0.0
29	0x00000000	0.0
30	0x00000000	0.0
31	0xba3f3d6e	-0.00072952255
32	0x00000000	0.0
33	0x00000000	0.0
34	0xbb4c945e	-0.0031216363
35	0xbabcfcb9	-0.0014418579
36	0x00000000	0.0
37	0x00000000	0.0
38	0x00000000	0.0
39	0xba877ca2	-0.0010336826
40	0x3a33e7ca	0.00068628474
41	0xbc4499da	-0.011999572
42	0xbb843091	-0.00403411
43	0x3a106248	0.0005507809
44	0x00000000	0.0
45	0x00000000	0.0
46	0x00000000	0.0
47	0xbba11063	-0.0049152835
48	0x00000000	0.0
49	0x39fc1826	0.00048083178
50	0xbb847bac	-0.004043063
51	0x00000000	0.0
52	0x3a8de2e4	0.0010825065
53	0x00000000	0.0
54	0x00000000	0.0
55	0xbb8afa44	-0.00424126
56	0xbb16865e	-0.0022968273
57	0x00000000	0.0
58	0xb9af99a0	-0.0003349306
59	0xbafb664f	-0.0019180271
60	0xbaa7c318	-0.0012799231
61	0x3bdb4540	0.006691605
62	0x00000000	0.0
63	0x38ea56fd	0.00011174192

model._value_branch_separate.0._model.0.weight f4 [128, 78]
0	0xbd734d11	-0.059399668
1	0x3c8400e9	0.016113715
2	0x3e07d3bb	0.13264363
3	0xbcfafaaf	-0.030637113
4	0xbb96d6e7	-0.004603255
5	0xbe6f3ec5	-0.23363788
6	0xbdffbcff	-0.1248722
7	0xbd8a0407	-0.067390494
8	0xb9afca5e	-0.00033529376
9	0xbe23e87c	-0.16006655
10	0xbd7e7d35	-0.062131125
11	0xbc4592fb	-0.012058969
12	0x3dc88c81	0.09792424
13	0xbc2ee911	-0.010675685
14	0xbd82e71e	-0.06391738
15	0xbd64be6b	-0.05584566
16	0x3d8a54b0	0.06754434
17	0xbcb3b28e	-0.021935727
18	0x3de4f74d	0.111799814
19	0x3d82c4cd	0.06385193
20	0x3d1bc11e	0.038025968
21	0x3e563245	0.20917614
22	0xbcff3633	-0.031153774
23	0xbe4650e0	-0.19366789
24	0x3dca11eb	0.09866699
25	0x3d11e240	0.03561616
26	0xbe8c7405	-0.27432266
27	0xbdcbff4a	-0.09960802
28	0xbe058b6a	-0.13041463
29	0xbd0f7ce5	-0.035031218
30	0xbdb5fd6b	-0.08886226
31	0xbda3e977	-0.08003514
32	0xbd556a25	-0.05210318
33	0x3e176d4b	0.14787786
34	0xbd6a3e7f	-0.057188507
35	0xba8b4b52	-0.0010627306
36	0x3e89f736	0.2694642
37	0xbbaa125f	-0.0051901783
38	0x3e42c581	0.19020654
39	0xbb9bce58	-0.0047548227
40	0xbd8a3e88	-0.06750208
41	0xbc66b1a5	-0.01408044
42	0x3d577c48	0.05260876
43	0xbc969690	-0.01838234
44	0x3bcc281a	0.0062303664
45	0x3df31244	0.11868718
46	0x3e22c929	0.15897049
47	0x3d93ac6b	0.072106205
48	0xbd7a7ddd	-0.06115519
49	0x3dffb1c0	0.12485075
50	0xbe6aea28	-0.22940886
51	0xbe166bc6	-0.1468955
52	0xbd40279f	-0.046912786
53	0x3c84e592	0.016222749
54	0xbd0110f7	-0.03151032
55	0xbe20d3eb	-0.1570584
56	0xbdb396a3	-0.08768966
57	0xbe5c76b7	-0.21529661
58	0xbd1f0dd2	-0.03883154
59	0x3c9f64ff	0.019457338
60	0xbdc3a8d1	-0.095536835
61	0xbd24a32c	-0.040194675
62	0x3e7a2985	0.24429901
63	0xbb6fa1c3	-0.0036564923
64	0xbe2a47fb	-0.16629021
65	0x3e1f8442	0.15577796
66	0xbd99ed40	-0.07515955
67	0x3df6056d	0.12012754
68	0xbdacef1d	-0.08444045
69	0xbd824d66	-0.06362419
70	0xbd179c15	-0.037014086
71	0xbe044416	-0.12916598
72	0xbdaf8adc	-0.08571407
73	0x3e3b30d3	0.18280344
74	0xbe2c956a	-0.16853872
75	0xbbce7fff	-0.0063018794
76	0x3dd0d5c0	0.101970196
77	0xbd8776b8	-0.06614441
78	0xbd12ee9c	-0.035872087
79	0x3d06efe5	0.032943625
80	0x3d18eab1	0.037333194
81	0xbe3fc442	-0.1872721
82	0xbd7d3b1c	-0.06182395
83	0xbdb9ca7d	-0.09071825
84	0xbe39c4fd	-0.18141551
85	0x3d39e9c8	0.045388967
86	0xbcfc2c55	-0.030782858
87	0x3d2bf9b2	0.041986175
88	0x3ce1a383	0.027543789
89	0x3e3f3cfb	0.18675606
90	0x3df40fce	0.11917077
91	0xbe1a9b2c	-0.15098256
92	0x3ba48012	0.00502015
93	0x3dcde991	0.10054315
94	0x3cc8bc59	0.024503874
95	0x3c9a522e	0.018838014
96	0x3d48cec8	0.049025327
97	0xbe622543	-0.22084527
98	0xbb2bc69a	-0.0026210905
99	0x3d98c503	0.07459452
100	0x3cb15d1a	0.02165084
101	0x3e419977	0.18906198
102	0xbd1341ce	-0.035951428
103	0x3e2268dd	0.15860315
104	0xbe03f3b9	-0.12885942
105	0x3e84dbfb	0.25949082
106	0xbd0081dc	-0.031373844
107	0xbdb1e7df	-0.08686804
108	0x3dae6e79	0.08517165
109	0xbdf8127e	-0.12112902
110	0xbd7a6ea4	-0.06114067
111	0x3c57041d	0.013123539
112	0xbd38f621	-0.0451566
113	0x3e0c7758	0.13717401
114	0x3e9228c5	0.2854673
115	0xbdcae082	-0.09906103
116	0x3e7be23c	0.2459802
117	0xbda72261	-0.08160854
118	0x3e5d62f5	0.2161978
119	0xbd6981cc	-0.05700855
120	0x3d955122	0.072908655
121	0x3de9eee4	0.11422518
122	0xbcff7746	-0.031184804
123	0x3d745a8d	0.05965667
124	0xbd81ab3d	-0.06331489
125	0xbd7c8029	-0.06164566
126	0xbc85812d	-0.016296947
127	0xbc258e67	-0.010104752
128	0x3e21978d	0.15780468
129	0x3d78aaea	0.06070987
130	0xbdd40cbb	-0.10353991
131	0x3dfed169	0.124422856
132	0x3c83a48e	0.016069677
133	0x3e22c1c5	0.1589423
134	0x3d88b7f9	0.06675715
135	0x3c7c7c49	0.015410491
136	0xbd6bc3a6	-0.05755963
137	0x3e53f20c	0.20697802
138	0x3cec4477	0.02884124
139	0xbd69cf24	-0.05708231
140	0x3eae2f40	0.34020424
141	0xbdfa50ba	-0.122224286
142	0x3d6fb8a6	0.058525704
143	0xbd1a84aa	-0.037724175
144	0xbdd4690f	-0.10371601
145	0x3cf9d917	0.030499024
146	0x3c46f2e7	0.012142873
147	0xbd7e3314	-0.06206043
148	0xbce0379c	-0.027370267
149	0x3cba74df	0.022760807
150	0xbdc4fab9	-0.09618134
151	0x3d5bd89b	0.053673368
152	0x3e7562f5	0.2396353
153	0x3cf88c72	0.030340407
154	0x3d3724b9	0.044712756
155	0xbde886d9	-0.11353845
156	0xbd069fa2	-0.03286708
157	0x3e379cc9	0.17930903
158	0x3c4ab3ca	0.012371967
159	0xbc94fbeb	-0.01818653
160	0x3d391352	0.04518444
161	0xbe30d4dc	-0.172687
162	0x3e0120b2	0.12610129
163	0xbda8b19d	-0.08237002
164	0x3b9740eb	0.004615893
165	0x3e476b3a	0.19474497
166	0x3e185d69	0.14879383
167	0xbdee1351	-0.11624778
168	0xbe3044c6	-0.17213735
169	0xbe0f062f	-0.13967203
170	0xbd26f872	-0.04076428
171	0xbc484b22	-0.012224944
172	0xbe0ba102	-0.13635638
173	0x3be7d321	0.007074729
174	0xbe1684c1	-0.14699079
175	0x3dd6b0ca	0.104829386
176	0x3debaa8e	0.1150714
177	0xbe2df480	-0.169878
178	0x3da8661c	0.08222601
179	0xbdc16573	-0.09443178
180	0xbc38fbb7	-0.011290482
181	0x3de0dff8	0.10980219
182	0xbe00673e	-0.12539384
183	0x3e60cdcc	0.21953505
184	0x3d36162b	0.044454735
185	0xbdb9acfc	-0.09066197
186	0xbdb2f472	-0.087380305
187	0xbc4e1f68	-0.01258073
188	0x3dde95af	0.10868394
189	0xbdc19b44	-0.09453443
190	0x3c1f59d6	0.009726008
191	0xbcdbfdb9	-0.026854383
192	0x3c7e40cb	0.015518378
193	0x3dd4cc49	0.10390527
194	0xbc03f657	-0.008054337
195	0xbdb17e48	-0.08666664
196	0x3c8383d8	0.016054079
197	0x3d2797c2	0.040916212
198	0x3e53fbef	0.20701574
199	0x3c85a3cf	0.016313462
200	0xbd5d0b16	-0.05396565
201	0xbdf35b78	-0.11882681
202	0x3dca110b	0.09866532
203	0x3d158d62	0.036511786
204	0xbc612d4e	-0.013743712
205	0x3c8cc50a	0.0171838
206	0x3d9fc9c3	0.07802155
207	0xbd3c3443	-0.04594828
208	0xbe010729	-0.12600388
209	0x3ca08797	0.019595904
210	0xbe557059	-0.20843638
211	0xbd236306	-0.039889358
212	0xbe389fe1	-0.18029739
213	0xbe3f1dce	-0.18663713
214	0x3db097a8	0.08622676
215	0xbde5de65	-0.11224059
216	0xbe193c2c	-0.1496436
217	0x3d2e9c51	0.042629544
218	0xbe348c4e	-0.17631647
219	0xbd4bf4df	-0.049794074
220	0xbe3220f3	-0.17395382
221	0xbc921528	-0.017832354
222	0xbe146953	-0.14493303
223	0xbea4cc52	-0.32187134
224	0x3dcad2be	0.09903477
225	0xbc897b03	-0.01678229
226	0x3dcae8fd	0.0990772
227	0xbab57cfb	-0.0013846451
228	0xbdada96a	-0.08479579
229	0xbcc3e01b	-0.023910573
230	0xbe1f7b12	-0.15574291
231	0x3da0b117	0.07846277
232	0x3e4de478	0.20106685
233	0xbd335893	-0.043785643
234	0xbc585093	-0.013202804
235	0x3e2cda6b	0.16880195
236	0xbde636b3	-0.11240902
237	0x3dafd0d0	0.0858475
238	0x3e17afc0	0.14813137
239	0x3daa8e6d	0.08327947
240	0xbd53726a	-0.051622786
241	0xbe030cd1	-0.12797858
242	0xbd5bc906	-0.053658508
243	0xbd6aa128	-0.057282597
244	0x3dac8f3d	0.08425758
245	0x3e22f39e	0.15913245
246	0xbe654246	-0.22388563
247	0x3c1fbe2b	0.009749929
248	0xbe2b7534	-0.16743928
249	0x3e86f045	0.26355186
250	0x3c84b101	0.016197683
251	0x3b06352c	0.002047847
252	0x3e3a56bc	0.18197149
253	0x3df7910d	0.12088213
254	0xbe3460e9	-0.17615093
255	0x3e073265	0.13202818

model._value_branch_separate.0._model.0.bias f4 [128]
0	0x00000000	0.0
1	0x3c8d6fdf	0.017265258
2	0x00000000	0.0
3	0x3c80a857	0.01570527
4	0x00000000	0.0
5	0x00000000	0.0
6	0x3c8c0318	0.017091319
7	0xbb6b49c2	-0.0035902117
8	0x00000000	0.0
9	0x00000000	0.0
10	0x3c39dbad	0.011343879
11	0x00000000	0.0
12	0x00000000	0.0
13	0xbc329eb9	-0.0109021
14	0x00000000	0.0
15	0xbb7528ba	-0.0037408308
16	0x00000000	0.0
17	0x3b8df9eb	0.004332771
18	0xbc0580f8	-0.008148424
19	0x3c3d17f0	0.011541352
20	0xbc06edf9	-0.008235448
21	0x00000000	0.0
22	0x00000000	0.0
23	0xbb6176db	-0.0034403119
24	0x3c8aa660	0.016925037
25	0x3c73b28b	0.014874111
26	0x00000000	0.0
27	0x00000000	0.0
28	0x00000000	0.0
29	0x00000000	0.0
30	0x00000000	0.0
31	0x00000000	0.0
32	0x3c58d582	0.013234498
33	0x3c85fe0a	0.016356487
34	0x3c500d0a	0.012698421
35	0x00000000	0.0
36	0x00000000	0.0
37	0x3c5d0330	0.0134895295
38	0x00000000	0.0
39	0x3c54decc	0.012992572
40	0x3c89641f	0.016771374
41	0x00000000	0.0
42	0x3c5f494c	0.013628315
43	0x00000000	0.0
44	0x00000000	0.0
45	0x00000000	0.0
46	0x00000000	0.0
47	0x3c83b937	0.016079528
48	0x3c598b71	0.013277874
49	0x3c2e4fef	0.010639175
50	0x00000000	0.0
51	0x3c83ecdc	0.016104154
52	0xbc1faf47	-0.009746379
53	0x00000000	0.0
54	0x3c8684f9	0.016420828
55	0x00000000	0.0
56	0x3c7ad3e3	0.015309307
57	0x00000000	0.0
58	0x3c862df6	0.016379338
59	0x3c8010c7	0.015633
60	0x00000000	0.0
61	0x00000000	0.0
62	0x00000000	0.0
63	0x00000000	0.0
64	0x00000000	0.0
65	0x3b645671	0.0034841562
66	0x3c8c9c2c	0.017164312
67	0x3bc6bef9	0.006065246
68	0x00000000	0.0
69	0x00000000	0.0
70	0x00000000	0.0
71	0x3c63ce2d	0.013904137
72	0x3c728578	0.014802329
73	0x3c366eb9	0.011134797
74	0x00000000	0.0
75	0xbaec2309	-0.0018015812
76	0x00000000	0.0
77	0x00000000	0.0
78	0x3c8374b0	0.016046852
79	0x00000000	0.0
80	0x00000000	0.0
81	0x00000000	0.0
82	0x00000000	0.0
83	0x00000000	0.0
84	0xbb2609a4	-0.0025335336
85	0x00000000	0.0
86	0xbc87b1e0	-0.01656431
87	0x00000000	0.0
88	0x00000000	0.0
89	0x00000000	0.0
90	0x3bfafc09	0.0076594395
91	0x3c48bd11	0.012252108
92	0x00000000	0.0
93	0xbc0b8def	-0.008517726
94	0x3c328919	0.010896944
95	0x00000000	0.0
96	0x3c5d0699	0.013490343
97	0x3c6d41da	0.014481032
98	0x3c5a2352	0.013314085
99	0xbb44f994	-0.0030055987
100	0x3c87daa1	0.016583743
101	0x00000000	0.0
102	0x00000000	0.0
103	0x00000000	0.0
104	0x00000000	0.0
105	0x3c562619	0.013070607
106	0x00000000	0.0
107	0x00000000	0.0
108	0xbc6ebc55	-0.014571269
109	0x00000000	0.0
110	0x3c877506	0.016535293
111	0x00000000	0.0
112	0xb9f2a62a	-0.0004628164
113	0x00000000	0.0
114	0x00000000	0.0
115	0x00000000	0.0
116	0x3c487f74	0.012237418
117	0x3c6675ea	0.014066199
118	0x3c89351d	0.01674896
119	0x00000000	0.0
120	0x00000000	0.0
121	0x3c1faa54	0.009745199
122	0x00000000	0.0
123	0x00000000	0.0
124	0x3c87911a	0.016548682
125	0x3c55fe56	0.013061127
126	0x00000000	0.0
127	0x3c585425	0.013203655
