Source/GameAI_Project/Scripts/training_results/20251201_003938/rl_policy_network.onnx (onnx, 288945 bytes, 15 tensors)

model._logits._model.0.weight f4 [16, 64]
0	0x3b1fe07c	0.0024395278
1	0xba424143	-0.00074102374
2	0xbb3ca036	-0.0028782017
3	0xbafae83e	-0.00191427
4	0xba2e00ce	-0.0006637693
5	0xbc1d496c	-0.009600025
6	0xbbcbf742	-0.006224544
7	0xbb3e960a	-0.002908113
8	0x3b5cb67b	0.0033678103
9	0xbb7e1832	-0.0038771746
10	0x3b007e34	0.0019606473
11	0x3a3bd151	0.00071646745
12	0xb86e4ed8	-5.681705e-05
13	0xbb7e8c50	-0.0038840957
14	0xba543176	-0.00080945285
15	0xbc387605	-0.011258607
16	0x3aabe4c7	0.0013114446
17	0xb91d0cba	-0.00014977428
18	0xbbe001fc	-0.006836174
19	0xbbb2eb9c	-0.0054602157
20	0xbbbb4200	-0.005714655
21	0xba82ed9d	-0.0009989027
22	0xb7ff3258	-3.0421812e-05
23	0x3b900cc1	0.0043960516
24	0x3aabe510	0.0013114531
25	0xbb68f6e0	-0.003554754
26	0xbb300bce	-0.0026862505
27	0x3ab01c90	0.0013436247
28	0xbb5fc928	-0.0034146998
29	0xbac9e65a	-0.0015403733
30	0xbbe50cef	-0.006990067
31	0x3afbee98	0.0019220887
32	0x39fb1e73	0.00047897137
33	0x3b225892	0.002477203
34	0x396e0c44	0.00022702018
35	0x3a38a469	0.0007043542
36	0xb982c015	-0.00024938644
37	0xbafa44f4	-0.0019094036
38	0xbbddadc0	-0.0067650974
39	0xbb17d1fd	-0.0023165934
40	0xbb2504ba	-0.002517982
41	0xba0d8667	-0.00053987507
42	0xbba3ef8c	-0.0050029214
43	0x392f5a4c	0.00016722939
44	0x3c23c178	0.009994857
45	0xbb03fabf	-0.002013847
46	0xbb454e21	-0.0030106383
47	0x3ab273ed	0.0013614871
48	0x3b0a4928	0.0021100733
49	0xbbd9f086	-0.006650987
50	0xbbb037fd	-0.005377768
51	0x391d0f45	0.00014978375
52	0xbb2e001a	-0.0026550354
53	0xba950cdc	-0.001137163
54	0x3a510d0c	0.00079746614
55	0xba2111b4	-0.00061443006
56	0xb919506f	-0.00014621181
57	0x399db178	0.00030077598
58	0xba0b8e1f	-0.0005323607
59	0xbc555eb7	-0.01302307
60	0x39d6a48b	0.00040939855
61	0x3aa00fa3	0.0012211691
62	0xba458af5	-0.000753566
63	0xbaf14c70	-0.0018409621
64	0x3a94fb71	0.0011366439
65	0xba7a457e	-0.00095470983
66	0xba93e931	-0.0011284706
67	0x3b0a8116	0.002113407
68	0x3b029df0	0.0019930564
69	0x3babcf2e	0.0052432036
70	0x3b6376ea	0.003470833
71	0x3b66bbf2	0.003520724
72	0xbcabd39e	-0.02097493
73	0x3b5f5e3d	0.003408327
74	0xbc43fe9c	-0.011962559
75	0x3b0edbb9	0.0021798445
76	0x3b271d11	0.0025499503
77	0x3b22b0d9	0.0024824648
78	0xbb22ed6d	-0.0024860755
79	0x3b0541e4	0.0020333463
80	0x3a2380d0	0.0006237151
81	0x3b1bd95b	0.0023780677
82	0x3b9dc16a	0.0048143165
83	0x3ba25ad3	0.0049546747
84	0x3ba0b718	0.004904639
85	0x3b1e9712	0.0024198932
86	0xba82dacb	-0.0009983418
87	0xbbdc2fb4	-0.006719554
88	0xba19f64e	-0.0005873189
89	0x3bcf9d72	0.0063359076
90	0x3ba1ff64	0.004943775
91	0xb89a0af0	-7.3453295e-05
92	0x3b0cc9bb	0.0021482545
93	0xbab31f97	-0.0013666031
94	0x3bc51b10	0.006015189
95	0x3a29352d	0.0006454762
96	0x39b18e26	0.0003386598
97	0x3993b8cd	0.00028175712
98	0x3afd932d	0.001934623
99	0xba30adbd	-0.0006739756
100	0x39d65bd2	0.00040885672
101	0xbb2bedcc	-0.0026234267
102	0x3bbdb9cf	0.0057899724
103	0x3b60f2eb	0.0034324478
104	0xbb89d434	-0.004206205
105	0x3b17ef84	0.0023183534
106	0x3b64ec1c	0.0034930771
107	0xbb200244	-0.0024415413
108	0xbc9b7f3c	-0.018981569
109	0xbb08b34f	-0.002085883
110	0x3ba2bf77	0.004966672
111	0xba70d70c	-0.0009187318
112	0xbb0fe98d	-0.0021959275
113	0xbbddea33	-0.0067723035
114	0x3b7fa6e3	0.0039009384
115	0x39a6f0aa	0.00031841296
116	0x3b4f3b16	0.0031620911
117	0x3b226f4a	0.0024785572
118	0xb9b5a9d4	-0.00034649542
119	0xb7b568bc	-2.1625652e-05
120	0x3b83fcc4	0.0040279347
121	0x3abebaea	0.0014551554
122	0xb9aa617d	-0.0003249756
123	0x3bc48f15	0.005998502
124	0x3b00d97c	0.001966088
125	0x3a6dbf96	0.0009069381
126	0x39df870a	0.00042634486
127	0x3ac32182	0.0014887305
128	0xb99d5b73	-0.00030013509
129	0x38f8b43f	0.00011859135
130	0xbb4bf7d8	-0.0031123068
131	0x39a783be	0.00031950878
132	0xb90fe629	-0.00013723284
133	0x3b59b1c2	0.0033217524
134	0x3b065d25	0.0020502296
135	0xba44580b	-0.0007489926
136	0x3b26decd	0.002546239
137	0x39d73b82	0.00041052332
138	0x3b14af14	0.0022687363
139	0x3ab30b1c	0.0013659927
140	0xbb60f737	-0.003432704
141	0x3aa15a04	0.0012310152
142	0xba70df19	-0.00091885176
143	0x3be23ce9	0.0069042337
144	0x3a9c5241	0.0011926369
145	0xbb28777f	-0.002570599
146	0x3af86ddc	0.0018953639
147	0xbb092f5f	-0.0020932776
148	0x3a88751a	0.0010410876
149	0xbb3bacfb	-0.002863704
150	0x3a2ab6f6	0.00065122487
151	0x3c7a00e0	0.015258998
152	0x392b7cca	0.00016354318
153	0x3a2de694	0.0006633785
154	0xbac43c9d	-0.0014971677
155	0x3a0f6907	0.00054706674
156	0x3b2ac56c	0.0026057614
157	0xba2d80fd	-0.0006618647
158	0x3bd2e0d8	0.006435495
159	0x3b4ea3d7	0.0031530762
160	0xba344e1f	-0.0006878096
161	0x39a2a41f	0.00031021328
162	0xbb5946be	-0.0033153738
163	0x3b2312e2	0.0024883081
164	0xba23725f	-0.0006234999
165	0x38a40f7f	7.823016e-05
166	0x3aa83ac9	0.0012834902
167	0xbb0899ab	-0.0020843546
168	0x3848d9b7	4.788648e-05
169	0xba5ba110	-0.0008378187
170	0x3a87f37e	0.0010372249
171	0xba6c70b0	-0.00090194773
172	0x3be48f86	0.006975117
173	0xba64167d	-0.0008700861
174	0xbb51e87c	-0.003202944
175	0x39a21d46	0.00030920858
176	0xbb5079b2	-0.0031810817
177	0x3bf052a5	0.0073340707
178	0xbacd5fc5	-0.00156688
179	0xba4c973d	-0.00078045187
180	0xbab87dcb	-0.0014075575
181	0xba58afb0	-0.00082659256
182	0xba86a46b	-0.0010272389
183	0x3a128951	0.000558992
184	0xbb4c1c94	-0.0031144964
185	0xbb8cbd6b	-0.0042950413
186	0xba51c56d	-0.0008002136
187	0x3c234ca5	0.009967004
188	0xb9414e7c	-0.00018435152
189	0xb98b8782	-0.00026613107
190	0xb94a5f6a	-0.00019299766
191	0xbb109d44	-0.0022066394
192	0xbb1d04ed	-0.0023959235
193	0xbc4774bc	-0.012173828
194	0xbba22c5e	-0.0049491366
195	0xba4ae335	-0.0007739545
196	0xbbe9bf14	-0.007133374
197	0xba5c6020	-0.0008406658
198	0xbc027763	-0.007963034
199	0xbb909055	-0.004411737
200	0x3c270bc3	0.010195675
201	0xbbfa76a4	-0.0076435376
202	0xbb9d0c58	-0.0047927313
203	0xba1b65f1	-0.0005927971
204	0xb8fd8af2	-0.00012089861
205	0xbbe90202	-0.007110835
206	0xbbbbc17f	-0.0057298536
207	0xb9a30861	-0.00031096025
208	0xbadc4675	-0.0016805666
209	0xbb2e1665	-0.002656364
210	0xbbe47cb0	-0.0069728717
211	0xbbeebbb0	-0.0072855577
212	0xbb559391	-0.0032589177
213	0xbba14072	-0.0049210126
214	0x395920b9	0.00020706923
215	0x3aa3048e	0.001243727
216	0xbb773d86	-0.003772588
217	0xbbe01b16	-0.0068391664
218	0xbba8b33f	-0.005148321
219	0x39750dc2	0.00023370146
220	0xbbe4ff4a	-0.0069884406
221	0xb8c96f39	-9.605144e-05
222	0xbbbfe1f2	-0.005855792
223	0xb8ba1409	-8.872903e-05
224	0x3a5b62de	0.00083689194
225	0x3acddb67	0.0015705646
226	0xb9c247ef	-0.00037056158
227	0xb9c6c54b	-0.00037912498
228	0xba1f7511	-0.0006082813
229	0x3a5f4fd7	0.0008518672
230	0xbc0c3eb4	-0.008559871
231	0xbbb49f40	-0.005512148
232	0xbb5833e7	-0.003298992
233	0xbb1e4d20	-0.0024154857
234	0xbc2e4968	-0.010637619
235	0x3a97585d	0.001154672
236	0xbb017a8a	-0.0019756877
237	0xbb0b9ed5	-0.0021304388
238	0xbbc613f1	-0.0060448577
239	0xba843a3a	-0.0010088154
240	0xbaf7d3d7	-0.0018907738
241	0xbc0395ee	-0.0080313515
242	0xbc265b13	-0.01015355
243	0xbb150e6b	-0.002274419
244	0xbbfaf71b	-0.007658852
245	0xba4aaad0	-0.00077311415
246	0x3ad0f57e	0.0015942303
247	0xb85af884	-5.22067e-05
248	0xbbe5dc67	-0.0070147994
249	0x3a9e598c	0.001208113
250	0xba28e76d	-0.00064431765
251	0xbbac1b1d	-0.0052522556
252	0xba185bce	-0.000581202
253	0xbb013889	-0.0019717535
254	0x39879615	0.00025861026
255	0xbb23cbfd	-0.0024993413

model._logits._model.0.bias f4 [16]
0	0xbbe652b8	-0.007028904
1	0x3bdd6637	0.0067565697
2	0x3ac134a8	0.0014740424
3	0xbc2288a6	-0.009920275
4	0xbb2cf73d	-0.0026392483
5	0x3bd9eab7	0.0066502946
6	0x3b2b48ab	0.0026135843
7	0xbc95de8c	-0.018294595
8	0x39dd58ba	0.0004221851
9	0xbae52ac1	-0.0017484055
10	0x3b0688f8	0.0020528417
11	0x3c073e0d	0.00825454
12	0xbc106af8	-0.008814566
13	0xbb6a6eff	-0.0035771725
14	0x3c089b7f	0.008337854
15	0xb89a552f	-7.359159e-05

model._hidden_layers.0._model.0.weight f4 [128, 78]
0	0x3e0da416	0.13832125
1	0xbcab3afc	-0.02090215
2	0x3dee492e	0.11635052
3	0x3de61e05	0.112361945
4	0xbcd594a2	-0.02607185
5	0xbd3df5c1	-0.046376947
6	0xbdcf0738	-0.10108799
7	0xbd8af15f	-0.06784319
8	0x3d1877b4	0.037223533
9	0x3c8e51b7	0.017372949
10	0x3e0e1ac1	0.13877393
11	0x3d3f6144	0.04672362
12	0x3d356831	0.044288818
13	0x3d900e0f	0.070339315
14	0xbcf72d2e	-0.03017291
15	0xbd8cbdcb	-0.06872138
16	0x3ce2e1c3	0.027695542
17	0x3b9d981e	0.0048093935
18	0x3dc9b601	0.098491676
19	0x3dc33b55	0.09532801
20	0x3e48e848	0.19619858
21	0x3debf4e3	0.11521318
22	0x3cf012a7	0.02930577
23	0xbd92ba55	-0.07164446
24	0x3d5dda9a	0.054163553
25	0xbdfd5c6f	-0.12371146
26	0x3dcd01fd	0.10010145
27	0xbcd6b8b5	-0.026211122
28	0xbdd7894b	-0.105242334
29	0xbe0bedcb	-0.1366493
30	0x3e46f386	0.19428834
31	0x3e43d470	0.19124007
32	0x3da654fe	0.0812168
33	0xbdc2b02b	-0.095062576
34	0xbcc105e6	-0.023562383
35	0xbe81cb93	-0.25350627
36	0xbdb05643	-0.08610203
37	0xbd2ee0c8	-0.042694837
38	0xbd7bfe10	-0.06152159
39	0xbe4ed546	-0.20198545
40	0xbd2be33d	-0.04196476
41	0xbd75b7d5	-0.05998977
42	0x3d89b2e4	0.06723574
43	0xbe85fbca	-0.26168662
44	0x3e045051	0.12921263
45	0xbdc8e4b7	-0.09809249
46	0xbc773bd3	-0.015089947
47	0x3dbb215f	0.091372244
48	0xbd5cb89a	-0.053886987
49	0x3e1b527d	0.15168186
50	0x3da53f07	0.08068662
51	0xbc6a66f3	-0.014306772
52	0x3dae40d7	0.08508461
53	0x3db73a1f	0.089466326
54	0xbe6940ed	-0.22778673
55	0x3d31f4ba	0.04344628
56	0xbcf85b2c	-0.030316912
57	0xbd1cef46	-0.038314126
58	0xbd11090c	-0.03540902
59	0x3d7ce903	0.061745655
60	0x3db2b94b	0.08726748
61	0xbd5ed9c2	-0.05440689
62	0xbd93c384	-0.07215026
63	0x3e79392f	0.2433822
64	0xbd637390	-0.05553013
65	0x3d497d3a	0.04919169
66	0x3e51b592	0.2047942
67	0x3db27557	0.08713787
68	0x3e0de0ec	0.13855332
69	0x3dc6e5db	0.0971181
70	0xbe358280	-0.17725563
71	0xbe4f4138	-0.20239723
72	0xbe09afa7	-0.13445912
73	0xbe85d740	-0.26140785
74	0xbd789be5	-0.060695548
75	0x3da9f03f	0.082977764
76	0xbc00dbf4	-0.007864941
77	0xbda96c8a	-0.08272655
78	0x3d42cca2	0.047558434
79	0xbdae6080	-0.085145
80	0xbd69d9ac	-0.057092354
81	0xbe240768	-0.1601845
82	0xbdfeb6d3	-0.12437215
83	0x3d929b61	0.071585424
84	0x3d05af35	0.032637794
85	0x3e50306f	0.20330976
86	0x3dc7b8b3	0.097520255
87	0x3db2ea13	0.08736052
88	0x3be4e5f4	0.0069854204
89	0x3e53500c	0.20636004
90	0xbd5ec240	-0.05438447
91	0xbda7a381	-0.08185483
92	0x3d541579	0.05177829
93	0xbc4e0252	-0.012573795
94	0xbcabe8a6	-0.020984959
95	0x3d8bef56	0.06832759
96	0xbe5d5f73	-0.21618442
97	0x3db5e80f	0.08882152
98	0xbd58fdec	-0.052976534
99	0x3de38513	0.11109366
100	0x3db4e2f9	0.08832354
101	0x3de4a845	0.11164907
102	0x3cfc9abf	0.030835507
103	0xbd58f3db	-0.052966934
104	0x3c959baa	0.018262703
105	0xbe35d206	-0.17755899
106	0x3d6c4487	0.05768254
107	0xbc785237	-0.01515632
108	0xbd0708f8	-0.032967538
109	0x3e2b4103	0.16724019
110	0x3dcbc409	0.099495
111	0xbd978c91	-0.07399858
112	0xbe86c9c8	-0.26325822
113	0xbcf76a72	-0.030202124
114	0x3db0e680	0.086377144
115	0x3e88c3ba	0.26711828
116	0x3dd6693f	0.10469293
117	0xbd445bde	-0.047939174
118	0xbe8701cd	-0.2636856
119	0x3d29a06e	0.041412763
120	0x3b9decac	0.0048194733
121	0xbced992f	-0.029003708
122	0x3da8b4b0	0.082375884
123	0xbe8a0b8e	-0.2696194
124	0x3e538acc	0.20658416
125	0x3e4fcfe9	0.20294155
126	0xbd1cbbf4	-0.038265184
127	0xbc456da0	-0.012050062
128	0xbd72c51e	-0.059270017
129	0xbda86953	-0.08223214
130	0x3d8252d6	0.06363456
131	0xbc954725	-0.0182224
132	0x3e15e01b	0.1463627
133	0x3c820a3d	0.015874023
134	0x3cd61af0	0.026135892
135	0xbca8a410	-0.020586044
136	0xbe00e53e	-0.12587449
137	0xbdf6d21a	-0.120517924
138	0x3db5324f	0.08847486
139	0xbe026aea	-0.12736097
140	0xbe4d622a	-0.20056978
141	0x3cfb6b82	0.030690912
142	0xbd5457a7	-0.051841404
143	0x3d4b5594	0.04964216
144	0xbbe16e16	-0.0068795783
145	0x3d88ce53	0.06679978
146	0x3dbd1f7d	0.092345215
147	0x3e16ace2	0.14714387
148	0xbdaca8dd	-0.084306456
149	0x3e0c4912	0.13699749
150	0x3cf474c4	0.029840834
151	0x3d0fe074	0.035126165
152	0xbdb7bdab	-0.08971723
153	0x3db440e4	0.088014394
154	0x3e31326b	0.17304389
155	0x3d49b9b7	0.049249377
156	0xbdd5b5b2	-0.10435046
157	0xbe112e14	-0.14177734
158	0xbbf403f8	-0.007446762
159	0x3ddf7490	0.109109044
160	0x3deab9e8	0.1146124
161	0x3cc9e602	0.02464581
162	0xbde171d6	-0.110080406
163	0xbdba07e1	-0.09083534
164	0xbd0a4178	-0.033753842
165	0x3d287c12	0.041133948
166	0x3db43d53	0.08800759
167	0xbda66df7	-0.08126443
168	0x3df4f6f2	0.119611636
169	0xbda7808b	-0.081788145
170	0xbd92c50b	-0.07166489
171	0xbdc9fd31	-0.098627456
172	0x3dc027ac	0.09382567
173	0xba55fea5	-0.000816325
174	0xbe3efabe	-0.18650338
175	0xbe120f49	-0.14263643
176	0x3d51b940	0.05120206
177	0xbca11f5b	-0.019668272
178	0xbe42ba72	-0.19016436
179	0x3bc66bd8	0.0060553364
180	0xbcc678aa	-0.024227459
181	0x3e12e855	0.1434644
182	0x3dacef6a	0.08444102
183	0xbe23e099	-0.16003646
184	0x3d69e8ef	0.05710691
185	0x3d5d3522	0.05400575
186	0x3d2e0551	0.04248554
187	0xbe9e06a5	-0.30864444
188	0xbd126cb2	-0.03574819
189	0x3b5b08a6	0.0033421903
190	0xbcd70800	-0.026248932
191	0x3dea42f5	0.11438552
192	0xbca7150a	-0.020395774
193	0xbd1be5e4	-0.038061038
194	0x3e45dee2	0.19323304
195	0x3df1893c	0.117937535
196	0x3d9be8a3	0.07612731
197	0xbda659aa	-0.08122571
198	0xbdc75359	-0.09732694
199	0x3cb5d31e	0.022195395
200	0x3e0c49a4	0.13699967
201	0xbe5e46fc	-0.21706766
202	0x3d939c74	0.072075754
203	0xbdaf18c7	-0.08549648
204	0x3dfbd81a	0.122970775
205	0x3e3b0bfa	0.18266287
206	0xbd2aa6a6	-0.041662835
207	0xbd3af05a	-0.045639373
208	0xbd8611af	-0.06546342
209	0xbea29703	-0.31755838
210	0xbcc5857d	-0.024111504
211	0x3e1e6cb2	0.15471151
212	0xbd257366	-0.040393256
213	0xbb9e5a41	-0.0048325364
214	0x3dbb53a8	0.091468155
215	0xbe81fe00	-0.253891
216	0x3d5dd0bf	0.054154154
217	0xbc95b1df	-0.018273292
218	0xbc7540ac	-0.014969032
219	0xbdad2516	-0.08454339
220	0xbd230ffd	-0.03981017
221	0x3e70f317	0.23530231
222	0xbe0ce622	-0.13759664
223	0x3e055c67	0.1302353
224	0xbdfe8698	-0.124280155
225	0x3d63cd60	0.055615783
226	0x3c6406bb	0.01391762
227	0x3d8609f2	0.06544866
228	0xbcba2cf1	-0.022726508
229	0x3e3b4b1d	0.18290372
230	0xbd9d13de	-0.07669805
231	0x3d8ca576	0.06867497
232	0x3dda8a9a	0.106709674
233	0x3d2d2483	0.04227115
234	0x3d191b4a	0.03737954
235	0xbde1da50	-0.11027968
236	0xbdbf320d	-0.09335718
237	0xbe2e59c6	-0.17026433
238	0xbda2c75f	-0.07948183
239	0xbcdd36b0	-0.027003616
240	0x3e00c968	0.1257683
241	0xbd03944d	-0.032123853
242	0x3d39ad28	0.04533115
243	0xbdd86a94	-0.10567203
244	0x3e381a01	0.1797867
245	0x3d139948	0.036034852
246	0xbcacea98	-0.021107957
247	0x3cfa0467	0.030519677
248	0xbca5105c	-0.020149402
249	0x3d8e3478	0.06943601
250	0xbe06f1df	-0.13178204
251	0xbe28ae4d	-0.1647274
252	0xbd9a3756	-0.07530086
253	0xbd3856d3	-0.045004677
254	0xbd8b2748	-0.06794602
255	0x3e05a87b	0.13052551

model._hidden_layers.0._model.0.bias f4 [128]
0	0x3ab6f982	0.0013959857
1	0xbb738897	-0.0037160271
2	0x00000000	0.0
3	0x00000000	0.0
4	0x00000000	0.0
5	0x00000000	0.0
6	0xbb3c42dc	-0.0028726375
7	0xbbdbbbf6	-0.0067057563
8	0x00000000	0.0
9	0x00000000	0.0
10	0x00000000	0.0
11	0xbb27790d	-0.002555433
12	0x00000000	0.0
13	0x00000000	0.0
14	0x00000000	0.0
15	0xbbe409c0	-0.00695917
16	0x00000000	0.0
17	0x00000000	0.0
18	0x00000000	0.0
19	0x00000000	0.0
20	0x00000000	0.0
21	0xbc398f9d	-0.011325744
22	0x00000000	0.0
23	0x3a856249	0.0010176386
24	0xbb67fe4a	-0.003539937
25	0x00000000	0.0
26	0xbc889cfc	-0.016676418
27	0xbbef39ff	-0.007300615
28	0x00000000	0.0
29	0x00000000	0.0
30	0x00000000	0.0
31	0x00000000	0.0
32	0xbc86a873	-0.016437745
33	0x00000000	0.0
34	0x00000000	0.0
35	0xbc33a91a	-0.01096561
36	0x00000000	0.0
37	0x00000000	0.0
38	0x00000000	0.0
39	0x00000000	0.0
40	0xbba639fd	-0.0050728307
41	0xbbdfae41	-0.0068261926
42	0xbae9e00f	-0.0017843264
43	0xbb0dd025	-0.0021638956
44	0xbba0bb0b	-0.0049051098
45	0xbbb99605	-0.0056636357
46	0xbc4b10d1	-0.012394146
47	0x00000000	0.0
48	0xbba3e396	-0.0050014956
49	0x00000000	0.0
50	0x00000000	0.0
51	0x00000000	0.0
52	0x00000000	0.0
53	0x00000000	0.0
54	0x00000000	0.0
55	0x00000000	0.0
56	0xbc43d21e	-0.011951951
57	0xbc591ab4	-0.013250995
58	0x00000000	0.0
59	0x00000000	0.0
60	0x00000000	0.0
61	0xbc08e9d1	-0.008356527
62	0xbbfe79d4	-0.007765988
63	0x00000000	0.0
64	0x00000000	0.0
65	0x00000000	0.0
66	0x00000000	0.0
67	0xba4e2eb3	-0.0007865235
68	0x00000000	0.0
69	0x00000000	0.0
70	0x00000000	0.0
71	0xbc154958	-0.009111725
72	0xbbbc7fa2	-0.0057525197
73	0xbb973201	-0.004614115
74	0xbb29f73a	-0.0025934712
75	0x00000000	0.0
76	0x3b845bf2	0.004039281
77	0x00000000	0.0
78	0xbc0765c8	-0.008264013
79	0xbb6141e4	-0.003437155
80	0xbb68ea0a	-0.0035539889
81	0x00000000	0.0
82	0x00000000	0.0
83	0xbb26db3c	-0.0025460264
84	0xbbeb5625	-0.0071819
85	0xbc50266d	-0.012704474
86	0x3c28ae09	0.010295399
87	0x3a64757f	0.0008715018
88	0x00000000	0.0
89	0xbbd11983	-0.006381215
90	0xbb18927c	-0.002328067
91	0x3b8060be	0.0039177826
92	0x00000000	0.0
93	0x00000000	0.0
94	0xbb395bd6	-0.0028283498
95	0xbb5ca1f4	-0.0033665868
96	0x00000000	0.0
97	0xbaca4977	-0.0015433271
98	0xbc1b898a	-0.009493241
99	0x00000000	0.0
100	0x00000000	0.0
101	0xbc22cb75	-0.009936203
102	0xbc6979d3	-0.014250237
103	0x00000000	0.0
104	0xbc2923f7	-0.010323516
105	0x00000000	0.0
106	0x00000000	0.0
107	0x00000000	0.0
108	0x00000000	0.0
109	0x00000000	0.0
110	0x00000000	0.0
111	0x3b789699	0.003793156
112	0x00000000	0.0
113	0x00000000	0.0
114	0x00000000	0.0
115	0xbc1e28be	-0.009653268
116	0xbbc67e50	-0.006057538
117	0x00000000	0.0
118	0xbba2af27	-0.0049647274
119	0x00000000	0.0
120	0xbbcb22f5	-0.0061992356
121	0xbc067444	-0.008206431
122	0xbc0481b8	-0.008087568
123	0xbc27680a	-0.010217676
124	0xb9f056b8	-0.00045840978
125	0xbb914d51	-0.0044342657
126	0x00000000	0.0
127	0x3785ad3c	1.5935504e-05

model._hidden_layers.1._model.0.weight f4 [128, 128]
0	0xbdc6e150	-0.09710944
1	0x3ca76437	0.020433528
2	0x3c8706a2	0.016482655
3	0x3ba4e294	0.005031893
4	0x3d48eed6	0.049055897
5	0xbdd0a131	-0.10186995
6	0xbe132b38	-0.14371955
7	0xbd558671	-0.052130166
8	0x3d7742d7	0.060366478
9	0x3dd2dd48	0.10296112
10	0xbcf5f995	-0.030026237
11	0xbbdc0cb1	-0.00671538
12	0x3d9b68fc	0.075883836
13	0x3dd2fddc	0.10302326
14	0x3bcd26b4	0.0062607173
15	0xbdc2cb50	-0.09511435
16	0x3e170097	0.14746319
17	0x3d5cfbae	0.053950958
18	0xbdad081c	-0.08448812
19	0xbaae6474	-0.0013305084
20	0xbda6b1a1	-0.08139349
21	0x3ce060e4	0.027389951
22	0x3c05ce6d	0.0081668915
23	0xbb43ef23	-0.0029897175
24	0x3e02f974	0.12790471
25	0xbdaaa73a	-0.08332677
26	0xbe198286	-0.14991197
27	0x3e563dd8	0.20922029
28	0xbdb52188	-0.08844286
29	0x3e55be1f	0.20873307
30	0x3c9e2566	0.019304942
31	0x3d916bea	0.07100661
32	0x3ca7fcd9	0.02050631
33	0x3daf6de1	0.085658796
34	0xbdf1ac17	-0.11800402
35	0xbd652f6e	-0.055953436
36	0x3cf02bca	0.029317755
37	0xbc942c7c	-0.018087618
38	0x3d5a8218	0.053346723
39	0x3dec812b	0.11548074
40	0xbdb280f4	-0.08716002
41	0xbc57c0f6	-0.013168564
42	0xbd45ac56	-0.048260055
43	0x3dc13c96	0.09435384
44	0xbde72f55	-0.11288325
45	0x3dc8b23c	0.097996205
46	0xbe18ccaa	-0.14921823
47	0x3dabe5e9	0.08393461
48	0x3cfea4e1	0.03108448
49	0x3e1d1b70	0.15342498
50	0xbb449c6f	-0.0030000468
51	0xbddce8fe	-0.10786627
52	0xbc9eed41	-0.01940024
53	0x3d79de3d	0.06100296
54	0x3c33c93a	0.010973269
55	0x3df5251a	0.11969967
56	0xbcf78fb7	-0.030219896
57	0xbc21391c	-0.009840276
58	0x3d1879db	0.037225585
59	0x3bb594ba	0.005541411
60	0x3cfb05df	0.030642448
61	0x3d1e616c	0.038667127
62	0x3c9b25b8	0.018938884
63	0xbe611e42	-0.21984199
64	0x3cd08feb	0.02545925
65	0xbcfdba00	-0.03097248
66	0xbdd9ff51	-0.10644401
67	0x3e5d8c57	0.21635567
68	0xbcb734c4	-0.022364028
69	0xbca2966e	-0.019847121
70	0xbd49e515	-0.049290735
71	0x3d8b6841	0.06806994
72	0x3d952abf	0.07283544
73	0xbd82a8ca	-0.0637985
74	0xbc745f3c	-0.014915284
75	0x3d74c748	0.059760362
76	0x3d98e187	0.07464891
77	0xbd6de7a7	-0.05808225
78	0x3c69f9ca	0.014280746
79	0x3ca83481	0.020532848
80	0x3deb448c	0.11487684
81	0x3d9dd690	0.0770694
82	0xbd750afb	-0.059824925
83	0x3d8f0766	0.06983833
84	0x3d4b9037	0.04969808
85	0xbd7052fa	-0.058672883
86	0x3dde3027	0.10849028
87	0x3e0ca79a	0.1373581
88	0x3da2f5ca	0.07957037
89	0x3c9199f5	0.017773608
90	0x3d372da4	0.04472126
91	0x3b2ee65c	0.0026687598
92	0xbb36db93	-0.0027901873
93	0x3dac088d	0.084000684
94	0xbe23515d	-0.15949006
95	0x3d9f0048	0.077637255
96	0x3dd70817	0.1049959
97	0xbc504247	-0.012711114
98	0x3da5255f	0.080637686
99	0x3c81a8da	0.015827585
100	0x3d92260d	0.07136164
101	0xbd831819	-0.06401081
102	0x3b667ba6	0.0035168915
103	0xbe0e3e76	-0.13891014
104	0xbd0919e3	-0.033471953
105	0x3cd6332f	0.026147453
106	0xbdb51e74	-0.08843699
107	0xbab70f83	-0.0013966415
108	0x3e0e9e63	0.13927607
109	0xbddc4606	-0.107555434
110	0x3d265770	0.04061073
111	0xbd902142	-0.070375934
112	0xbd9d0c9e	-0.07668422
113	0xbdc4c5dc	-0.09608051
114	0xbc1bebc2	-0.009516658
115	0x3e4afbeb	0.19822662
116	0x3cc6a47f	0.02424836
117	0x3da7082b	0.08155855
118	0xbd2b7eab	-0.041868847
119	0xbe7e6e2e	-0.24846718
120	0xbdf1a410	-0.117988706
121	0xbd15b0e3	-0.036545645
122	0xbd35e1ed	-0.044404913
123	0x3dc4b166	0.096041486
124	0xbe4eb268	-0.20185244
125	0x3dcc4ac8	0.09975201
126	0xbd3e0ffc	-0.046401963
127	0x3d722fbc	0.059127554
128	0x3c76dbd9	0.015067064
129	0xbdc3f996	-0.09569089
130	0xbd0723eb	-0.03299324
131	0x3bb5910c	0.0055409726
132	0xbc91b0c2	-0.01778448
133	0x3db444e1	0.088022
134	0xbd34db50	-0.044154465
135	0xbd456e70	-0.048201025
136	0xbe75236a	-0.2393929
137	0x3d2a8ea7	0.04163995
138	0xbe5d096f	-0.2158563
139	0xbde10772	-0.10987748
140	0xbd83118a	-0.0639983
141	0x3d816ccb	0.06319579
142	0x3dbc15a1	0.09183813
143	0xbc74742c	-0.014920276
144	0xbcd229fe	-0.025654789
145	0x3d6dce8e	0.058058314
146	0xbe1b9e6e	-0.15197155
147	0xba11db25	-0.0005563966
148	0xbe62ea3d	-0.22159667
149	0x3d7173c1	0.058948282
150	0x3df64b9f	0.12026142
151	0x3d6ef4f4	0.058339074
152	0xbe07503b	-0.13214199
153	0xbe00c31d	-0.1257443
154	0x3de98fbd	0.11404369
155	0xbd27b7c6	-0.040946744
156	0xbe437b6e	-0.19090053
157	0x3d42f2c0	0.047594786
158	0xbd57f068	-0.052719504
159	0x3da88a78	0.08229536
160	0xbc2db8f4	-0.010603178
161	0xbcbf5ef8	-0.023360714
162	0xbde4fa58	-0.11180562
163	0x3d5a11fe	0.053239815
164	0xbe0204bf	-0.12697123
165	0x3e4bbc7f	0.19896124
166	0x3d94cd67	0.0726574
167	0xbe0d6841	-0.13809301
168	0xbc6c8bab	-0.014437596
169	0xbdfe0f0d	-0.124052145
170	0xbda17f4c	-0.07885608
171	0xbb919fea	-0.004444112
172	0xbd49fd10	-0.049313605
173	0xbd4323c8	-0.047641546
174	0x3c348611	0.011018292
175	0xbcb0c427	-0.021577908
176	0x3e125608	0.14290631
177	0xbe3ec226	-0.18628749
178	0x3cf43ba2	0.029813591
179	0x3d947b8f	0.072501294
180	0xbccf8bc6	-0.025335204
181	0x3d8aad50	0.06771338
182	0x3c2f2cbc	0.010691818
183	0xbde5327a	-0.11191268
184	0x3d323534	0.04350777
185	0x3d11387e	0.035454266
186	0x3da2a94d	0.07942448
187	0xbdd9c0e1	-0.10632492
188	0xbcdfbfd9	-0.02731316
189	0x3c62d636	0.013845017
190	0x3aa304fa	0.0012437396
191	0xbd11c9b5	-0.035592753
192	0xbd2c5a6a	-0.042078413
193	0x3c001e21	0.007819683
194	0xbcb57a1c	-0.022152953
195	0xbc9b3849	-0.018947737
196	0xbdd0203d	-0.10162399
197	0x3d8062f3	0.06268873
198	0x3d9ec36b	0.07752117
199	0x3d43f87e	0.047844402
200	0x3dde7ee0	0.10864043
201	0xbd48bf4b	-0.049010556
202	0xbe1a2997	-0.15054928
203	0x3c3ca7a0	0.011514574
204	0x3d5a24b2	0.05325765
205	0xbe51ab12	-0.20475414
206	0x3d4cdf85	0.050017852
207	0x3d9f4216	0.07776277
208	0x3db162d3	0.08661427
209	0xbd50bb19	-0.05095968
210	0x3b488400	0.0030596256
211	0xbd05e74e	-0.032691292
212	0xbd80f277	-0.062962465
213	0x3d763e55	0.06011804
214	0xbd7ab0ba	-0.061203696
215	0xbe54d2da	-0.20783558
216	0xbccb7b20	-0.024838984
217	0xbcf4a9b5	-0.029866079
218	0xbd0c4423	-0.034244668
219	0x3ddfeb50	0.10933554
220	0xbda2ece5	-0.0795534
221	0x3dcc7593	0.09983363
222	0x3d392e7c	0.045210347
223	0xbdee93ec	-0.116493076
224	0x3ccc9c12	0.024976764
225	0x3e05e293	0.13074712
226	0x3dd2be77	0.102902345
227	0x3d8e7bdc	0.06957218
228	0x3c37ee73	0.011226284
229	0xbda36f96	-0.07980268
230	0xbc80e58c	-0.015734456
231	0x3ca3a51a	0.019976187
232	0xbe14f31c	-0.14545864
233	0x3e2799c2	0.16367248
234	0xbdc2ac72	-0.095055476
235	0x3cb0abb6	0.021566253
236	0x3d0ade1a	0.03390322
237	0xbd0548c7	-0.03254011
238	0xbd4d5df7	-0.05013844
239	0xbdebe97f	-0.11519145
240	0xbd966053	-0.07342591
241	0xbc6803de	-0.014161078
242	0x3ce92fae	0.028465118
243	0xbc81c16d	-0.015839303
244	0x3c9de883	0.01927591
245	0xbd1b3b37	-0.03789827
246	0xbe0bed99	-0.13664855
247	0xbda06cc1	-0.07833243
248	0xbc150320	-0.009094983
249	0x3bbf765f	0.0058429684
250	0xbcc38c0a	-0.023870487
251	0xbdaf1484	-0.08548835
252	0xbe314ffa	-0.17315665
253	0x3d8d5d61	0.06902576
254	0x3d8305e6	0.063976094
255	0xbb6c227a	-0.0036031292

model._hidden_layers.1._model.0.bias f4 [128]
0	0x3c018d16	0.007907173
1	0x00000000	0.0
2	0x00000000	0.0
3	0xbb14e25e	-0.0022717933
4	0x39e4763e	0.00043575646
5	0xbc4b1796	-0.01239576
6	0xbc02f484	-0.007992867
7	0x00000000	0.0
8	0xba699d6b	-0.0008911702
9	0xbad25a6e	-0.0016048679
10	0x3b9e1a51	0.0048249145
11	0x00000000	0.0
12	0xbb0290e5	-0.001992279
13	0x00000000	0.0
14	0xbb0812c7	-0.0020763145
15	0xbc4014a4	-0.011723671
16	0xbc389e70	-0.011268243
17	0x00000000	0.0
18	0x00000000	0.0
19	0x00000000	0.0
20	0x00000000	0.0
21	0xbae5b3b1	-0.0017524866
22	0x00000000	0.0
23	0x00000000	0.0
24	0x00000000	0.0
25	0xbbfa2904	-0.007634284
26	0xbb84f8ca	-0.0040579783
27	0xbb66488d	-0.0035138458
28	0xbc5cf806	-0.013486868
29	0x00000000	0.0
30	0xb9837c28	-0.0002507877
31	0x00000000	0.0
32	0xbc0022d2	-0.007820802
33	0x3b935386	0.0044960408
34	0x3b33e817	0.0027451569
35	0x00000000	0.0
36	0x3adcbff8	0.0016841879
37	0x00000000	0.0
38	0xbc1d7b59	-0.009611928
39	0xbbda727c	-0.0066664796
40	0x00000000	0.0
41	0x3acc3986	0.0015581108
42	0x3b07ffc3	0.002075181
43	0x00000000	0.0
44	0x00000000	0.0
45	0xbc00a6ea	-0.007852295
46	0x3b49e533	0.003080678
47	0x3b342b80	0.0027491748
48	0x00000000	0.0
49	0x00000000	0.0
50	0x00000000	0.0
51	0x00000000	0.0
52	0x00000000	0.0
53	0x00000000	0.0
54	0xbbfd9c1f	-0.0077395584
55	0xbb1b33b7	-0.0023681947
56	0x00000000	0.0
57	0x00000000	0.0
58	0x00000000	0.0
59	0x3aa85e75	0.0012845533
60	0x00000000	0.0
61	0x00000000	0.0
62	0xbbf37741	-0.0074299877
63	0x00000000	0.0
64	0xbb813027	-0.003942508
65	0x00000000	0.0
66	0xbbfc2c3d	-0.0076957033
67	0x3940e757	0.00018396728
68	0xbbb739f9	-0.0055916277
69	0xbbfe3219	-0.007757437
70	0x3b63f749	0.0034784845
71	0xbaa280de	-0.0012398025
72	0xbbd745b3	-0.006569588
73	0x00000000	0.0
74	0x00000000	0.0
75	0xbaf57cc6	-0.0018729202
76	0x00000000	0.0
77	0xb94adbeb	-0.00019346147
78	0x00000000	0.0
79	0x3b78fa00	0.0037990808
80	0x00000000	0.0
81	0x00000000	0.0
82	0xbc2415a1	-0.010014922
83	0x00000000	0.0
84	0x00000000	0.0
85	0x00000000	0.0
86	0x00000000	0.0
87	0xbc9c5387	-0.019082798
88	0x3bf5f4aa	0.007505973
89	0x00000000	0.0
90	0xbc071c2b	-0.008246462
91	0x00000000	0.0
92	0xbc59da28	-0.013296641
93	0x00000000	0.0
94	0x00000000	0.0
95	0x00000000	0.0
96	0xbbc2d18a	-0.005945389
97	0x3bfcfa45	0.007720264
98	0xbc8786a1	-0.016543688
99	0x00000000	0.0
100	0xb95f075b	-0.00021269677
101	0x00000000	0.0
102	0x00000000	0.0
103	0x00000000	0.0
104	0x00000000	0.0
105	0xbbd55420	-0.0065102726
106	0xbc299903	-0.010351422
107	0x00000000	0.0
108	0xbbfca0f2	-0.007709616
109	0x00000000	0.0
110	0x00000000	0.0
111	0x00000000	0.0
112	0x00000000	0.0
113	0x00000000	0.0
114	0x00000000	0.0
115	0x00000000	0.0
116	0xbb3b38b1	-0.0028567726
117	0xbb71ee00	-0.003691554
118	0xbbd266df	-0.0064209546
119	0x00000000	0.0
120	0x00000000	0.0
121	0x00000000	0.0
122	0xbbb7e853	-0.005612412
123	0x00000000	0.0
124	0x00000000	0.0
125	0x00000000	0.0
126	0x00000000	0.0
127	0x00000000	0.0

model._hidden_layers.2._model.0.weight f4 [64, 128]
0	0xbd8c04a0	-0.0683682
1	0x3da96b61	0.08272434
2	0x3b333ba8	0.002734879
3	0xbda10d1f	-0.07863831
4	0x3d9e11dd	0.07718251
5	0x3dfe4954	0.1241633
6	0xbdde790c	-0.108629316
7	0xbe47de91	-0.19518496
8	0xbd76b672	-0.060232587
9	0x3e09d23a	0.13459101
10	0x3bfe755c	0.007765455
11	0xbdc17f09	-0.09448058
12	0xbd38974f	-0.045066174
13	0xbd8fd7ee	-0.07023607
14	0xbd8deeb0	-0.06930292
15	0x3d380377	0.04492518
16	0xbb1a8eaf	-0.0023583581
17	0xbd1ba9e5	-0.03800382
18	0x3dfddb4f	0.123953454
19	0x3e4eb678	0.20186794
20	0x3e2cd67f	0.16878699
21	0xbd976281	-0.07391835
22	0x3cffbd75	0.03121827
23	0x3d9f2804	0.07771304
24	0x3e0b94ae	0.13630936
25	0x3c24ebb0	0.010065958
26	0xbdb84ca0	-0.0899899
27	0x3d7d2f62	0.061812766
28	0xbd03fbb4	-0.032222465
29	0x3e197336	0.14985356
30	0x3d609896	0.054833017
31	0xbe47054e	-0.19435617
32	0xbca74acd	-0.02042141
33	0x3ccd8f9a	0.025092889
34	0xbd2fab51	-0.04288799
35	0xbd33f95b	-0.043938976
36	0x3c1a4bce	0.009417487
37	0x3d01ef45	0.031722326
38	0x3ca1260d	0.019671464
39	0x3d69ae06	0.057050727
40	0x3e0e9ab9	0.1392621
41	0x3e86412d	0.262216
42	0xbdcd6df7	-0.1003074
43	0xbb48cbdc	-0.0030639088
44	0x3e0819ef	0.13291143
45	0xbd111c1c	-0.035427198
46	0xbe3bca39	-0.1833886
47	0xbd62641a	-0.055271246
48	0xbe037a58	-0.12839639
49	0x3d52013e	0.051270716
50	0x3bf7391f	0.007544651
51	0xbd24d9c7	-0.04024675
52	0xbe239ee7	-0.15978585
53	0x3d78d4b1	0.060749713
54	0xbdd69da4	-0.10479286
55	0xbd260e41	-0.040540937
56	0xbd4c2961	-0.04984415
57	0x3cd9fa18	0.026608512
58	0x3d9c7b74	0.07640734
59	0x3e15854d	0.14601631
60	0x3d9614a4	0.07328156
61	0xbd68de85	-0.056852836
62	0x3e403601	0.18770601
63	0xbd35d0a1	-0.044388417
64	0x3db19773	0.08671465
65	0xbd9494d6	-0.07254951
66	0x3a22f112	0.0006215732
67	0xbc54c7de	-0.012987105
68	0xbd229196	-0.039689623
69	0xbdb9f3c1	-0.090796955
70	0x3bc286c9	0.005936478
71	0xbd5b33ca	-0.053516187
72	0x3c5f357d	0.013623592
73	0x3d2272e1	0.03966034
74	0x3dfb9c3f	0.12285661
75	0xbd94faec	-0.07274422
76	0xbd61b069	-0.05509988
77	0xbd8e584e	-0.069504365
78	0xbdcf0259	-0.1010787
79	0xbd98151d	-0.07425902
80	0x3da8798d	0.08226309
81	0xbd26f448	-0.04076031
82	0xbd304347	-0.04303291
83	0x3db1e439	0.08686108
84	0x3d5834e5	0.05278482
85	0xbd2e5771	-0.04256386
86	0xbd420d28	-0.047375828
87	0xbdaa0727	-0.083021455
88	0xbcefb38f	-0.029260425
89	0x3cb3e66e	0.021960463
90	0x3d52b018	0.051437467
91	0x3cf3edfc	0.029776566
92	0x3e13acd3	0.14421396
93	0xbd498713	-0.049201082
94	0xbd3e3345	-0.046435613
95	0xbd72565d	-0.059164394
96	0xbc97f2af	-0.018548338
97	0xbe164e39	-0.14678277
98	0xbba39dfe	-0.0049931994
99	0x3d912d00	0.07088661
100	0xbd14bbde	-0.036311977
101	0xbe344480	-0.17604256
102	0xbda0f9c8	-0.07860142
103	0xbd13f2f7	-0.03612038
104	0xbd2647e9	-0.040595923
105	0x3cb744ab	0.02237161
106	0xbb3c2417	-0.0028708035
107	0x3d3de7c8	0.046363622
108	0x3e17221a	0.14759102
109	0x3d1f4b42	0.03889013
110	0xbdcdcdce	-0.1004902
111	0x3ce8b8e4	0.028408475
112	0xbd101004	-0.035171524
113	0x3d90d952	0.070727006
114	0xbdd1e00f	-0.10247814
115	0xbcfcd17f	-0.030861614
116	0xbce8527b	-0.028359642
117	0xbd6a662c	-0.057226345
118	0x3d3d4b51	0.046214405
119	0xbd2bfccb	-0.04198913
120	0x3e66a4ec	0.2252385
121	0xbc7a5ed5	-0.015281399
122	0xbe1e8c88	-0.15483296
123	0x3d7f10ac	0.06227176
124	0x3e017ab8	0.1264447
125	0xbd796690	-0.060888827
126	0xbda20786	-0.07911591
127	0xbc813d56	-0.015776318
128	0x3cd646a0	0.026156723
129	0xbd81c0fa	-0.063356355
130	0x3d32cd84	0.043653026
131	0xbbfcb4d4	-0.007711986
132	0x3db3c72b	0.08778223
133	0x3c7b7e38	0.015349917
134	0xbe3521bf	-0.17688654
135	0xbc741265	-0.014896964
136	0xbb904c0a	-0.004403596
137	0x3de68e0e	0.112575635
138	0xbd55b874	-0.05217786
139	0x3df0836b	0.11743816
140	0x3cf12539	0.029436694
141	0x3bf670b1	0.007520758
142	0x3d221196	0.039567553
143	0x3d5e21c1	0.05423141
144	0xbde8c1c6	-0.11365084
145	0x3c938586	0.018008005
146	0x3e03cc48	0.12870896
147	0xbbb6e663	-0.0055816635
148	0xbdba4aaa	-0.09096272
149	0x3e25cc4c	0.16191214
150	0x3e2d5be6	0.16929588
151	0xbaf66b2a	-0.0018800248
152	0xbcc7f102	-0.024406914
153	0xbdee4b20	-0.11635423
154	0x3d28c2e7	0.0412015
155	0x3d3a4a48	0.045480996
156	0xbd54a5f3	-0.051916074
157	0xbc3c6e36	-0.011500886
158	0xbdb117d7	-0.08647125
159	0xbdf16cb9	-0.11788315
160	0x3da5cfe2	0.08096291
161	0xbd89ded4	-0.06731954
162	0xbd2d6acc	-0.042338178
163	0xbbb96b55	-0.005658547
164	0xbd9ffb73	-0.07811632
165	0xbd994ac1	-0.07484961
166	0xbd3099df	-0.043115493
167	0xbcffd41e	-0.031229075
168	0xbcbec885	-0.023288975
169	0xbcfc825e	-0.030823883
170	0x3e185f49	0.14880098
171	0xbd89b5e9	-0.0672415
172	0x3d1b5a87	0.03792813
173	0x3de93a50	0.11388075
174	0x3c7f2904	0.015573744
175	0x3d97fdd0	0.07421458
176	0x3da9e0b6	0.08294813
177	0x3b482b77	0.0030543485
178	0x3c482d95	0.012217899
179	0x3dab9253	0.083775185
180	0x3c241882	0.010015609
181	0xbe1772b1	-0.14789845
182	0xbcb76af1	-0.02238986
183	0xbde1ebeb	-0.11031326
184	0xbdba8ae9	-0.09108526
185	0x3c0633bf	0.008191048
186	0x3e2d5244	0.16925913
187	0x3dc5d7b4	0.09660283
188	0xbc4bdc20	-0.012442619
189	0x3d94cb10	0.072652936
190	0xbd326d3f	-0.043561216
191	0xbdb7233d	-0.08942268
192	0x3c93005c	0.017944507
193	0xbde5c619	-0.11219425
194	0xbc97491a	-0.018467475
195	0xbd05a8e7	-0.03263178
196	0xbda10ad9	-0.07863397
197	0xbd871c08	-0.065971434
198	0x3df1b290	0.11801636
199	0xbe283758	-0.16427362
200	0xbe06f621	-0.13179828
201	0xbe11cb91	-0.1423781
202	0xbd63353c	-0.05547069
203	0xbd7f1028	-0.062271267
204	0x3d9c550e	0.076334104
205	0xba80a025	-0.0009813352
206	0x3ddfbcf4	0.10924712
207	0x3e94bf04	0.29051983
208	0x3df9d345	0.121984996
209	0xbd6a6bf9	-0.057231877
210	0xbb75a545	-0.0037482542
211	0x3e5e9059	0.21734752
212	0x3e03716a	0.12836233
213	0xbde839f8	-0.11339182
214	0x3cc984a2	0.024599377
215	0xbd828aa2	-0.06374098
216	0xbd86c157	-0.065798454
217	0x3d985186	0.07437424
218	0xbde30a2f	-0.11085927
219	0xbd00c2fc	-0.03143595
220	0xbcb0d2ef	-0.021584956
221	0x3de3ccb9	0.11123032
222	0xbdce73da	-0.10080691
223	0xbcb498a0	-0.022045434
224	0xbd811c45	-0.0630422
225	0xbc48ef73	-0.01226412
226	0xbda9db25	-0.082937516
227	0x3ab21f6f	0.001358969
228	0x3ccd70bb	0.025078168
229	0xbc68ee0a	-0.014216909
230	0x3dcb65d9	0.09931535
231	0x3d12b9e7	0.03582182
232	0x3d8abdff	0.0677452
233	0xbdfc3f84	-0.12316802
234	0xbd85f65a	-0.065411285
235	0x3cfcfe81	0.030883076
236	0x3cd2df51	0.025741251
237	0xbcb4efbb	-0.022086969
238	0xbd6c967e	-0.057760708
239	0x3c922a08	0.017842308
240	0xbdb428b0	-0.08796823
241	0xbdcbd606	-0.09952931
242	0xbe5b7f24	-0.21435219
243	0x3e329633	0.17440109
244	0x3dd04e77	0.10171216
245	0x3d1e530d	0.038653422
246	0xbd531823	-0.05153669
247	0xbd433252	-0.04765541
248	0x3df3eb03	0.11910059
249	0x3c26c2dc	0.010178294
250	0x3e6ec95d	0.23319001
251	0x3cd00113	0.025391137
252	0xbd323658	-0.043508857
253	0x3c78285d	0.015146342
254	0xbcb86a37	-0.022511585
255	0x3d83af5b	0.06429931

model._hidden_layers.2._model.0.bias f4 [64]
0	0xbb322e7e	-0.0027188356
1	0xbc531399	-0.01288309
2	0xbbbb7847	-0.0057211253
3	0x3abbdb5a	0.001433234
4	0x3b229018	0.0024805125
5	0xbc139d2a	-0.009009639
6	0x3b65907a	0.0035028742
7	0xbb0aa065	-0.0021152731
8	0x3bf90cb2	0.0076003904
9	0xba41018a	-0.0007362595
10	0xbb9734e5	-0.00461446
11	0x00000000	0.0
12	0xbbc17c82	-0.005904735
13	0xbb6d9e6b	-0.0036257755
14	0xbbe57bc5	-0.00700328
15	0xbc0009da	-0.007814849
16	0xbbe64e0d	-0.0070283473
17	0xbabb8908	-0.0014307806
18	0x3bf68503	0.0075231805
19	0x3a5c9790	0.00084149186
20	0xbb9411ea	-0.004518737
21	0xba881160	-0.0010381155
22	0x00000000	0.0
23	0x3ac2ed01	0.0014871658
24	0xbb35cfec	-0.002774234
25	0xbb88cec2	-0.004175038
26	0xbba189ed	-0.004929772
27	0x00000000	0.0
28	0xbbc46890	-0.00599391
29	0x00000000	0.0
30	0xbbd51570	-0.0065027997
31	0x00000000	0.0
32	0x00000000	0.0
33	0x00000000	0.0
34	0x00000000	0.0
35	0x00000000	0.0
36	0xbb650f6e	-0.0034951824
37	0x00000000	0.0
38	0x3b720876	0.0036931313
39	0xbb96324d	-0.004583633
40	0x3c249aaa	0.01004664
41	0xbb5034a7	-0.0031769664
42	0x3b408812	0.002937798
43	0x00000000	0.0
44	0xbbe48cdf	-0.006974801
45	0x00000000	0.0
46	0x3b7840ac	0.0037880344
47	0x00000000	0.0
48	0xbb33e12b	-0.0027447443
49	0xbbec4101	-0.0072098975
50	0x3b409d14	0.00293905
51	0x00000000	0.0
52	0xbb1f0926	-0.0024266928
53	0x00000000	0.0
54	0x00000000	0.0
55	0x00000000	0.0
56	0xbba9f4fc	-0.005186675
57	0xbb66a3b1	-0.0035192783
58	0x00000000	0.0
59	0xbb858eff	-0.0040758844
60	0x00000000	0.0
61	0x00000000	0.0
62	0x00000000	0.0
63	0xbbe6da4e	-0.007045067

model._value_branch_separate.0._model.0.weight f4 [128, 78]
0	0x3c55fd92	0.013060944
1	0x3d374090	0.044739306
2	0xbd55f4b9	-0.05223534
3	0x3db54a89	0.08852107
4	0x3d7e967c	0.06215523
5	0x3da17ca0	0.078850985
6	0x3d46b119	0.048508737
7	0xbc2b895d	-0.010469762
8	0x3df4aff6	0.119476244
9	0xbde30bb9	-0.1108622
10	0xbda0f8a7	-0.07859927
11	0x3c80e267	0.015732957
12	0xbd5d6f84	-0.054061428
13	0x3e46d639	0.19417657
14	0xbc8a5b6a	-0.016889293
15	0x3dc963c9	0.09833486
16	0x3d24e9f3	0.040262174
17	0x3e3c6b89	0.18400396
18	0xbc39d9f0	-0.011343464
19	0xbca613eb	-0.02027317
20	0xbd9dda1f	-0.07707619
21	0xbdfa055b	-0.12208053
22	0x3e4e1935	0.20126803
23	0xbd12ce17	-0.035841074
24	0x3d66fe3f	0.05639481
25	0x3d8abaa3	0.067738794
26	0x3cc4da35	0.02402983
27	0xbd2c0771	-0.041999284
28	0x3ce22119	0.027603673
29	0xbd51430d	-0.051089335
30	0x3ddcc1b5	0.10779134
31	0x3e6ae8f9	0.22940435
32	0x3dc0bfac	0.094115585
33	0x3d38423a	0.044985034
34	0x3cb71125	0.022347042
35	0xbc9fa620	-0.019488394
36	0xbe1f7ecd	-0.15575714
37	0xbe341d1a	-0.17589226
38	0x3cf420c1	0.029800775
39	0xbdc22b4c	-0.094809145
40	0x3cf7f8bd	0.030269975
41	0x3e944d8e	0.2896542
42	0x3df57c40	0.119865894
43	0x3e019fdd	0.12658639
44	0x3e3e892f	0.18607019
45	0x3e6b4021	0.22973682
46	0x3e096910	0.13418984
47	0xbd75f704	-0.060050026
48	0xbe190099	-0.14941634
49	0xbd9b302d	-0.07577548
50	0xbdca50b3	-0.098786734
51	0x3ce8ee81	0.02843404
52	0xbd2fcaf3	-0.042918157
53	0x3c93b1eb	0.018029174
54	0xbcc00a4d	-0.023442412
55	0xbe381f73	-0.17980747
56	0x3e25fd50	0.16209912
57	0x3e3e90cd	0.18609925
58	0x3e19c9bb	0.1501836
59	0xbe6dde61	-0.23229362
60	0x3e6555f7	0.22396074
61	0xbca0b68f	-0.0196183
62	0xbd37619c	-0.044770822
63	0xbd8395fe	-0.06425093
64	0xbd7feb4c	-0.062480256
65	0x3d1e8cc3	0.03870846
66	0x3e2f523f	0.17121218
67	0x3dde5839	0.10856671
68	0x3d2a1c6e	0.04153102
69	0x3d0e6b42	0.034770258
70	0x3dc700ed	0.097169735
71	0xbc839bd9	-0.016065525
72	0x3d2abc3e	0.041683428
73	0xbe60d229	-0.2195517
74	0xbe36217c	-0.17786211
75	0xbdb6c382	-0.08924009
76	0xbd6e3589	-0.058156524
77	0xbbe9b9ae	-0.0071327304
78	0xbc6f6227	-0.014610804
79	0xbc4dafd1	-0.012554125
80	0x3d5d5448	0.054035455
81	0xbd128f0d	-0.035780955
82	0x3e052136	0.1300095
83	0xbe0012e5	-0.12507208
84	0xbe849895	-0.2589766
85	0xbe12f64a	-0.14351764
86	0x3b0783c5	0.0020677906
87	0xbdec1b57	-0.11528652
88	0xbb38a599	-0.0028174876
89	0xbd2cf267	-0.04222336
90	0xbe125f89	-0.14294256
91	0x3db0c821	0.086319216
92	0x3df2a223	0.118473314
93	0x3c98eb52	0.018666897
94	0x3d53feab	0.051756542
95	0x3db09d38	0.08623737
96	0xbe2511a7	-0.16120015
97	0xbc86d789	-0.016460197
98	0xbbeae467	-0.007168341
99	0xbe1d5b63	-0.15366893
100	0xbdfc11a9	-0.12308056
101	0x3dec84f7	0.115487985
102	0x3dc6b966	0.09703331
103	0x3dabf2d7	0.083959274
104	0x3c6636ad	0.014051122
105	0xbdc8a7bf	-0.0979762
106	0xbda408e3	-0.080095075
107	0xbc8cad8c	-0.017172597
108	0x3d0346aa	0.032049812
109	0xbe73fb28	-0.23826277
110	0xbcc5a285	-0.024125347
111	0xbcbea1c3	-0.023270493
112	0xbd66cec0	-0.056349516
113	0x3e44064a	0.19143024
114	0xbd907e31	-0.07055319
115	0xbb01c54d	-0.0019801438
116	0x3d10437b	0.035220604
117	0x3e078c9f	0.13237236
118	0xbb370a62	-0.0027929773
119	0x3dfdc3c6	0.123908564
120	0x3dacc4f2	0.08436002
121	0x3cbe4ff6	0.023231488
122	0x3ce959d5	0.028485218
123	0xbd1a3b31	-0.037654106
124	0xbe51d093	-0.20489721
125	0x3b23542d	0.0024922
126	0xbd5e4116	-0.05426129
127	0x3cf67f11	0.030089887
128	0xbd71548f	-0.058918532
129	0xbdd57bc9	-0.10424001
130	0x3e2a9fe7	0.1666256
131	0x3d3debab	0.04636733
132	0xbd5d49f2	-0.054025598
133	0xbd83aa2e	-0.064289436
134	0xbcf3c77b	-0.029758206
135	0xbe154ab0	-0.14579272
136	0x3dcdf4de	0.1005647
137	0xbd062101	-0.03274632
138	0x3e55bf2a	0.20873705
139	0x3c4ac349	0.012375661
140	0xbd90c2f0	-0.070684314
141	0x3d8164ba	0.0631804
142	0xbd960a91	-0.07326234
143	0xbecd5e90	-0.40111208
144	0xbb2e9936	-0.0026641614
145	0xbc8fb0cf	-0.017540364
146	0x3e1698bd	0.14706703
147	0x3d1c25a2	0.038121827
148	0x3e9d7077	0.30749866
149	0xbe041ec9	-0.12902369
150	0x3b78048e	0.0037844512
151	0xbbb8f222	-0.005644099
152	0x3e621e1a	0.22081795
153	0xbdf67a6a	-0.120350674
154	0x3c666771	0.014062748
155	0x3d085dde	0.033292644
156	0x3d978be7	0.07399731
157	0xbe11e29d	-0.14246602
158	0xbd8606a9	-0.06544239
159	0xbd624e5e	-0.055250518
160	0xbcc52991	-0.024067672
161	0x3e068cea	0.13139692
162	0xbd9924b9	-0.074777074
163	0x3eaa802d	0.33300915
164	0xbdf3add7	-0.11898392
165	0x3d971db2	0.07378711
166	0x3cf19b04	0.029492863
167	0x3d33ac09	0.043865237
168	0x3d95f6d9	0.07322473
169	0xbd5c5775	-0.053794343
170	0x3de979b1	0.11400164
171	0x3be85d8d	0.0070912302
172	0x3e3f357f	0.18672751
173	0x3ca8a1c6	0.020584952
174	0xbd195ba7	-0.037440922
175	0xbe31488f	-0.17312835
176	0xbe24ab91	-0.16081072
177	0xbe3e760f	-0.18599723
178	0x3bcb153f	0.006197601
179	0xbbecf8d1	-0.0072318097
180	0x3d4256eb	0.047446173
181	0xbc07d193	-0.0082897125
182	0xbd8ffae8	-0.070302784
183	0x3da94d00	0.0826664
184	0xbd31481f	-0.04328167
185	0x3d87baee	0.06627451
186	0x3b6d7abb	0.0036236483
187	0x3e417ad1	0.18894507
188	0x3c9d8777	0.019229634
189	0xbbe8849e	-0.0070958873
190	0xbd6a7594	-0.057241037
191	0x3df13760	0.1177814
192	0x3dcd32e3	0.100194715
193	0x3e7c68d8	0.2464937
194	0x3ddafd32	0.106928244
195	0xbd626dd0	-0.055280507
196	0x3e518b53	0.20463304
197	0x3e192ed2	0.14959267
198	0x3e28d00b	0.16485612
199	0xbd75d93a	-0.060021617
200	0x3d979c6a	0.074028805
201	0xbe8121d4	-0.2522112
202	0x3dcd9327	0.10037833
203	0x3da912a4	0.082555085
204	0xbde56dea	-0.11202605
205	0x3cb274fc	0.021784298
206	0x3e25eb81	0.16203119
207	0x3d880348	0.06641251
208	0x3e19a0b7	0.15002714
209	0x3d3f6757	0.046729412
210	0x3db0194a	0.085985735
211	0x3c821bfa	0.01588248
212	0xbc14b090	-0.009075299
213	0x3df90e14	0.12160888
214	0xbabe7368	-0.0014530243
215	0xbd4430b3	-0.047898006
216	0x3e4879bd	0.1957769
217	0x3db9aba4	0.09065941
218	0x3e5d245b	0.215959
219	0xbd774189	-0.060365234
220	0xbded8c9a	-0.11599083
221	0xbe5c9e23	-0.215447
222	0xbe32bf9a	-0.17455903
223	0x3c15456e	0.009110792
224	0xbd2d1942	-0.042260416
225	0xbcdd3ba2	-0.027005974
226	0xbd911256	-0.070835754
227	0xbdcac0a2	-0.09900023
228	0xbd0a2f8c	-0.03373675
229	0x3db6f8c9	0.08934171
230	0x3d27bfaf	0.040954288
231	0x3e05fb6a	0.13084188
232	0xbc64d660	-0.013967127
233	0x3d42ab08	0.04752639
234	0xbe1bfde3	-0.15233569
235	0x3c5c6410	0.013451591
236	0x3e22fbcc	0.15916365
237	0x3ea39cd3	0.31955585
238	0x3d5e9be6	0.054347895
239	0x3e55ce8c	0.20879573
240	0x3c614445	0.013749187
241	0x3d37274f	0.044715222
242	0x3e2aeb5c	0.16691345
243	0xbc4e9831	-0.012609527
244	0xbb21d12f	-0.0024691334
245	0xbbe9df17	-0.00713719
246	0xbe0e866a	-0.13918462
247	0x3d44c7d9	0.048042152
248	0x3e4b3c3d	0.19847198
249	0xbde6bbbc	-0.11266276
250	0xba6843e2	-0.0008860213
251	0x3d2f814d	0.04284792
252	0x3def3d1c	0.116815776
253	0x3da6c345	0.081427135
254	0xbe035b49	-0.12827791
255	0x3c9a6a0f	0.0188494

model._value_branch_separate.0._model.0.bias f4 [128]
0	0x3c300b74	0.010744918
1	0x00000000	0.0
2	0x3c0656b4	0.008199383
3	0xbc4ea84d	-0.012613368
4	0x3bd6b790	0.006552644
5	0x3c7e6e65	0.01552925
6	0x00000000	0.0
7	0x3c88c0bd	0.016693467
8	0x3c88edce	0.016714957
9	0x3c3b3933	0.011427212
10	0x3c8ab9a4	0.016934223
11	0x00000000	0.0
12	0x00000000	0.0
13	0x00000000	0.0
14	0xbc261df6	-0.010138979
15	0xbb7b8467	-0.0038378478
16	0xbb5c3329	-0.003359983
17	0x3c887b5d	0.016660387
18	0x00000000	0.0
19	0x00000000	0.0
20	0x3c66ff9e	0.01409903
21	0x3c8994ab	0.016794523
22	0x3c703f5c	0.014663544
23	0x3c726c59	0.01479634
24	0xbbc09baa	-0.0058779316
25	0x3be9b7ed	0.0071325214
26	0x3c76f17e	0.015072225
27	0x3c861cf1	0.016371222
28	0x00000000	0.0
29	0x00000000	0.0
30	0x00000000	0.0
31	0x00000000	0.0
32	0xbbd13871	-0.006384902
33	0xbbc29bc2	-0.005938978
34	0x00000000	0.0
35	0xbc807286	-0.015679609
36	0x00000000	0.0
37	0x00000000	0.0
38	0x3c62350c	0.013806593
39	0xbbf08559	-0.007340115
40	0x3c8a5c21	0.016889634
41	0xbc8d796b	-0.01726981
42	0x3c886e14	0.016654052
43	0x00000000	0.0
44	0x00000000	0.0
45	0x00000000	0.0
46	0x3c8a1641	0.016856315
47	0x00000000	0.0
48	0x3c856c04	0.016286857
49	0x3c3b8b7c	0.01144683
50	0xbc6afcab	-0.014342467
51	0x3c2a3955	0.010389646
52	0xbaec222b	-0.0018015554
53	0x00000000	0.0
54	0x38c45bb4	9.363089e-05
55	0x00000000	0.0
56	0x3c8a24b9	0.016863214
57	0x3c88effc	0.016715996
58	0x00000000	0.0
59	0x00000000	0.0
60	0x3c7856de	0.0151574295
61	0x3c625629	0.0138144875
62	0x00000000	0.0
63	0x3c8d639a	0.017259408
64	0x3c84e084	0.016220339
65	0xbc6565ec	-0.014001351
66	0x3c85203a	0.016250718
67	0x00000000	0.0
68	0x3c88faa0	0.01672107
69	0x00000000	0.0
70	0x3c8298df	0.015942035
71	0xbc04507e	-0.008075831
72	0x00000000	0.0
73	0x00000000	0.0
74	0x00000000	0.0
75	0x3c89ef78	0.01683782
76	0x3c26ba09	0.01017619
77	0x00000000	0.0
78	0x3c7fd466	0.015614605
79	0x00000000	0.0
80	0x3c8decf1	0.017324897
81	0x3c804553	0.015658056
82	0xbbd13bbd	-0.006385295
83	0x3c8784bf	0.01654279
84	0x00000000	0.0
85	0x00000000	0.0
86	0xbc2572bd	-0.0100981565
87	0x3c7caa49	0.0154214585
88	0x00000000	0.0
89	0x00000000	0.0
90	0x3c8bac94	0.017050065
91	0x3c84a7c7	0.016193284
92	0x00000000	0.0
93	0x00000000	0.0
94	0x3c7c7a5d	0.015410033
95	0x3c8b2483	0.016985184
96	0x00000000	0.0
97	0x3c8b4c93	0.017004287
98	0x3c895c9f	0.016767798
99	0x00000000	0.0
100	0xbb3d93cf	-0.0028927212
101	0x00000000	0.0
102	0x00000000	0.0
103	0x00000000	0.0
104	0x3c810a97	0.01575212
105	0x3c789d95	0.015174289
106	0x00000000	0.0
107	0x00000000	0.0
108	0xbb5face4	-0.003413015
109	0x00000000	0.0
110	0x00000000	0.0
111	0x3c89f421	0.016840043
112	0x00000000	0.0
113	0x3c8b39b7	0.016995294
114	0x3c74f572	0.014951097
115	0x00000000	0.0
116	0x3c763c06	0.015028959
117	0x3b278508	0.002556147
118	0x3c7404aa	0.01489369
119	0x00000000	0.0
120	0x3c7235a6	0.014783299
121	0x00000000	0.0
122	0xbc28ccc6	-0.010302728
123	0x00000000	0.0
124	0x3c518816	0.012788793
125	0x00000000	0.0
126	0x3c7bd0fc	0.01536965
127	0x3c8c0787	0.017093433
